Convert ML Model/Convert DNN Model/dnn5_model.tflite (tflite, 22008 bytes, 7 tensors)

sequential_2/normalization_2/truediv;sequential_2/normalization_2/Sqrt f4 [1, 9]
0.0632772 2.0088475 2.2641573 2.0158105 2.0039177 2.0248704 2.065591 2.650609
3.7262242
00000000: 7a97 813d f590 0040 f4e7 1040 0a03 0140
00000010: 3040 0040 7a97 0140 a532 0440 94a3 2940
00000020: 757a 6e40

sequential_2/dense_7/BiasAdd/ReadVariableOp f4 [64]
0.0 -0.020956418 -0.025251772 -0.049081847 -0.017802905 0.056931067 -0.028260311 -0.028331961
0.058494084 0.047595836 -0.035172265 0.060429495 0.05855361 0.00120771 0.056820158 0.055145912
-0.015600951 0.063674256 0.058316853 0.021927884 -0.027122986 0.061940424 0.057083506 0.064483225
0.06369862 0.057502247 -0.030301806 0.05722111 -0.029835897 0.055025466 0.055387165 0.06720232
-0.029597046 0.072793156 0.056482285 -0.02921058 -0.023763923 0.058842015 0.07046044 0.062452696
0.011097474 0.057408605 -0.03138794 0.058267225 -0.0023054022 -0.04536531 0.060683284 0.058577165
0.05755853 -0.019771991 -0.026604705 -0.045150623 -0.009851403 0.056636572 0.056750417 0.056987096
-0.030712282 -0.018024065 -0.008889402 0.055835664 0.057838883 -0.04774331 -0.006163757 0.059327673
00000000: 0000 0000 cbac abbc cedc cebc 0c0a 49bd
00000010: 66d7 91bc 8d30 693d 2b82 e7bc 6e18 e8bc
00000020: 7e97 6f3d daf3 423d cb10 10bd eb84 773d
00000030: e9d5 6f3d 064c 9e3a 41bc 683d aee0 613d
00000040: 229b 7fbc a667 823d a7dd 6e3d 1ba2 b33c
00000050: 0631 debc 3eb5 7d3d 65d0 693d c80f 843d
00000060: 6c74 823d 7a87 6b3d 7e3b f8bc af60 6a3d
00000070: 696a f4bc 6262 613d a7dd 623d 5fa1 893d
00000080: 8175 f2bc 9414 953d f859 673d 074b efbc
00000090: 8fac c2bc 5304 713d 904d 903d 66ce 7f3d
000000a0: 2ed2 353c 4925 6b3d a490 00bd 9da9 6e3d
000000b0: 3b16 17bb fad0 39bd 098f 783d 9cee 6f3d
000000c0: 7ec2 6b3d dff8 a1bc 1cf2 d9bc dcef 38bd
000000d0: c767 21bc c0fb 673d 2073 683d 4d6b 693d
000000e0: 5398 fbbc 34a7 93bc dba4 11bc f0b3 643d
000000f0: 77e8 6c3d 7d8e 43bd 57f9 c9bb 9301 733d

sequential_2/dense_6/BiasAdd/ReadVariableOp f4 [64]
0.02726885 0.0869351 0.05252027 -0.00032063798 0.0891798 0.089206874 0.035694502 0.103839464
0.0889279 0.09151986 0.04365394 0.07706596 0.012410567 0.06583331 -0.009623753 0.05022119
-0.014099624 0.06653779 -0.0395014 0.09561576 0.07787517 0.054772798 0.024401596 0.021184705
0.02881203 0.058756735 0.060876478 0.04069559 -0.011863384 0.051553495 0.03554234 0.10296806
-0.062069993 0.06194303 0.07285151 0.08731731 0.09285968 0.025970245 0.05511471 0.06294565
0.027900524 0.044787727 0.080439374 0.012505877 -0.001738735 0.039870948 0.024430022 -0.0065095117
0.0010997972 0.09131378 0.051134627 -0.05618695 0.07108906 0.025472503 0.057150822 0.015823223
0.0765431 0.029592585 0.026803771 0.012133656 0.108819865 0.04100419 0.061722483 -0.022793908
00000000: ec62 df3c 080b b23d 7f1f 573d 4d1b a8b9
00000010: e6a3 b63d 18b2 b63d 6634 123d c9a9 d43d
00000020: d51f b63d c46e bb3d 79ce 323d c2d4 9d3d
00000030: b155 4b3c 9dd3 863d f2ac 1dbc bcb4 4d3d
00000040: 1c02 67bc f744 883d 38cc 21bd 32d2 c33d
00000050: 047d 9f3d 7159 603d dbe5 c73c 8c8b ad3c
00000060: 3507 ec3c e7aa 703d 9d59 793d 6bb0 263d
00000070: a45e 42bc c229 533d d894 113d ebe0 d23d
00000080: 1b3d 7ebd fab7 7d3d 2c33 953d 6bd3 b23d
00000090: 372d be3d 8dbf d43c f6bf 613d a6e9 803d
000000a0: a48f e43c 5673 373d 66bd a43d 73e5 4c3c
000000b0: 44e6 e3ba b84f 233d 7821 c83c be4d d5bb
000000c0: 1227 903a b802 bb3d 8b72 513d 4a24 66bd
000000d0: 2497 913d b6ab d03c fb16 6a3d b49f 813c
000000e0: a1c2 9c3d 266c f23c 9593 db3c 3ecc 463c
000000f0: f3dc de3d 02f4 273d b7d0 7c3d 4aba babc

Const f4 [1, 9]
34.75 0.546875 0.734375 0.5625 0.46875 0.421875 0.375 0.171875
0.078125
00000000: 0000 0b42 0000 0c3f 0000 3c3f 0000 103f
00000010: 0000 f03e 0000 d83e 0000 c03e 0000 303e
00000020: 0000 a03d

sequential_2/dense_6/MatMul f4 [64, 9]
0.26155654 0.07122902 -0.0031836878 0.05613257 0.2735374 -0.30353513 -0.05872475 -0.14240167
0.20174477 -0.23561399 -0.069552094 -0.23816292 0.20295869 -0.10864243 0.30107287 0.31007072
0.17665908 -0.41168648 0.0042593363 0.12564898 -0.026925847 0.07423974 0.3813973 0.2904808
0.11072268 0.11929741 0.22428754 -0.017445209 -0.111765325 -0.27148783 -0.22652406 0.24845704
-0.1189382 0.21438028 0.031354792 0.079189815 -0.21768892 -0.35637265 -0.24738316 0.008403665
0.25487027 0.16879225 0.10091654 -0.2491395 -0.3545322 -0.24256481 -0.000718073 0.3547459
-0.04386999 0.20675209 -0.1831052 0.12364645 0.25189546 -0.3103548 0.10002799 0.18912587
-0.17598404 -0.028966997 -0.23333955 -0.24255458 0.10288089 0.10069217 -0.16476956 0.30235937
-0.24920689 0.27679953 -0.17947705 0.030624628 -0.21174154 -0.3027056 -0.26908222 -0.17672668
-0.28144848 -0.20432132 0.25153598 0.06495651 -0.06787171 0.2405712 -0.059896525 0.10849357
-0.33902338 0.045207053 -0.015310437 -0.2958734 -0.10791707 -0.1919253 -0.14563707 -0.28068525
0.22697727 -0.16606465 -0.25198376 -0.10854958 -0.078897394 -0.16837542 -0.2685365 -0.23207171
-0.12502444 -0.1861529 0.0226213 -0.041876495 0.27488115 -0.17516457 -0.23174644 0.26847667
0.12666148 -0.015825626 -0.24279141 0.19760697 -0.23770957 -0.21466225 0.047192495 0.011127855
-0.11485493 -0.15604393 -0.13549976 0.16043904 -0.10752697 0.24051905 0.04830304 -0.11924324
0.18044497 -0.21654113 -0.031034471 -0.19996135 -0.29048538 -0.17727682 0.2347854 0.2072933
0.117435664 0.19693646 -0.076166496 0.046959646 -0.0004504604 0.17917559 0.23230696 -0.07796794
-0.30497345 0.1695447 0.10283273 -0.33439216 -0.23498398 0.0051405756 -0.22872585 -0.047455523
-0.227541 0.084225975 -0.039836887 -0.1907171 0.29782468 0.37454197 -0.13884568 -0.2518615
0.17442757 0.29845464 -0.13079593 0.1761687 0.09862228 -0.29147863 -0.05436644 -0.18287998
-0.18144439 -0.078233615 -0.027018575 -0.23562641 0.15315597 -0.006136002 -0.11452613 -0.21139905
0.06264199 0.1480779 0.11217946 -0.2905744 -0.36594167 -0.12535982 -0.004617095 0.28643703
0.10098344 0.26029143 -0.22753425 -0.20018046 0.047901485 -0.015744278 0.32650325 0.087138124
0.07022635 -0.31131724 -0.25464576 0.15379919 0.2068004 -0.11311998 0.11813678 0.22763918
-0.009302804 -0.262464 -0.29453844 -0.20509014 0.20666741 -0.013450604 -0.23080048 -0.052158844
0.08874097 -0.12978631 -0.32573518 -0.2587347 0.15368989 0.1917704 -0.055736132 0.32165876
-0.11306973 -0.16864677 0.24294987 0.14187881 -0.21334648 -0.07157849 -0.36491445 0.25408944
-0.048244234 -0.038662143 -0.13882333 -0.16284183 -0.029349089 0.29811865 0.13719031 0.04070742
0.14824358 -0.14559549 -0.36619174 -0.024823934 0.02364044 0.13984787 -0.12607238 0.2529891
-0.08538686 -0.21247236 0.31954315 0.31268722 -0.20705868 0.04782202 -0.28093892 -0.22996502
0.20123824 0.13087694 0.17527479 0.37581712 0.07952798 -0.33105862 0.1965557 -0.31218868
-0.06345148 -0.21589273 -0.12804241 -0.12802619 0.30301544 0.29162183 0.1825851 -0.011505383
00000000: bdea 853e 85e0 913d 6ba5 50bb 44eb 653d
00000010: 180d 8c3e f568 9bbe 5d89 70bd bed1 11be
00000020: 2e96 4e3e cb44 71be 5471 8ebd fbe0 73be
00000030: 67d4 4f3e ec7f debd 3926 9a3e 97c1 9e3e
00000040: 1ee6 343e 92c8 d2be e791 8b3b 20aa 003e
00000050: 9893 dcbc 010b 983d 8246 c33e e6b9 943e
00000060: 93c2 e23d 3352 f43d a2ab 653e 41e9 8ebc
00000070: 38e5 e4bd 7400 8bbe ecf5 67be 866b 7e3e
00000080: df95 f3bd 8186 5b3e e26d 003d 452e a23d
00000090: d8e9 5ebe 7a76 b6be 0352 7dbe 87af 093c
000000a0: 5b7e 823e e0d7 2c3e 55ad ce3d 6d1e 7fbe
000000b0: 3f85 b5be e962 78be 103d 3cba 41a1 b53e
000000c0: 05b1 33bd d2b6 533e ee7f 3bbe 5a3a fd3d
000000d0: 71f8 803e d3e6 9ebe 7adb cc3d 36aa 413e
000000e0: 2935 34be 324c edbc 90f0 6ebe 3a60 78be
000000f0: 37b3 d23d b237 ce3d 5ab9 28be d9ce 9a3e
00000100: 1730 7fbe abb8 8d3e d5c8 37be 80e0 fa3c
00000110: c6d2 58be 3afc 9abe 25c5 89be d7f7 34be
00000120: 041a 90be 9c39 51be 53c9 803e eb07 853d
00000130: 5300 8bbd 4c58 763e 0f56 75bd e031 de3d
00000140: 7994 adbe 082b 393d a1d8 7abc b87c 97be
00000150: a003 ddbd 1188 44be e221 15be fab5 8fbe
00000160: bb6c 683e da0c 2abe 0404 81be 3e4f debd
00000170: f594 a1bd 9b6a 2cbe 9e7d 89be 35a4 6dbe
00000180: 6806 00be de9e 3ebe 4e50 b93c b086 2bbd
00000190: 39bd 8c3e 575e 33be f04e 6dbe c675 893e
000001a0: 8cb3 013e bea4 81bc 509e 78be 7b59 4a3e
000001b0: 236a 73be 6cd0 5bbe eb4c 413d 9b51 363c
000001c0: 1039 ebbd fbc9 1fbe 73c0 0abe 224a 243e
000001d0: 1a37 dcbd a04a 763e 69d9 453d cd35 f4bd
000001e0: 91c6 383e f5bc 5dbe 013c febc abc2 4cbe
000001f0: 80ba 94be 0e88 35be 956b 703e b244 543e
00000200: 1c82 f03d b6a9 493e 2efd 9bbd c258 403d
00000210: c52b ecb9 ce79 373e e0e1 6d3e a8ad 9fbd
00000220: 7b25 9cbe 209d 2d3e f799 d23d 7335 abbe
00000230: a49f 70be 4672 a83b 1c37 6abe b960 42bd
00000240: 8200 69be ab7e ac3d 012c 23bd 584b 43be
00000250: 7a7c 983e f7c3 bf3e 902d 0ebe fef3 80be
00000260: 249d 323e 0ccf 983e 5eef 05be 9165 343e
00000270: 7afa c93d b03c 95be 58af 5ebd e444 3bbe
00000280: 8fcc 39be f238 a0bd 0f56 ddbc 0d48 71be
00000290: ebd4 1c3e 8410 c9bb ad8c eabd fe78 58be
000002a0: 724a 803d bca1 173e 58be e53d 2bc6 94be
000002b0: b55c bbbe 535e 00be 004b 97bb e0a7 923e
000002c0: 68d0 ce3d eb44 853e bdfe 68be 1bfc 4cbe
000002d0: 5934 443d 25fa 80bc 6f2b a73e 7975 b23d
000002e0: d5d2 8f3d f964 9fbe ee60 82be 897d 1d3e
000002f0: 7cc3 533e 73ab e7bd b2f1 f13d 3f1a 693e
00000300: ca6a 18bc ae61 86be becd 96be 2603 52be
00000310: 9fa0 533e ec5f 5cbc f656 6cbe 83a4 55bd
00000320: d3bd b53d b4e6 04be c3c6 a6be e078 84be
00000330: e260 1d3e 765f 443e 924b 64bd 75b0 a43e
00000340: 1a91 e7bd bdb1 2cbe dac7 783e ae48 113e
00000350: 8077 5abe be97 92bd 11d6 babe 0318 823e
00000360: bf9b 45bd 325c 1ebd b427 0ebe 02c0 26be
00000370: 806d f0bc 02a3 983e 9e7b 0c3e d3bc 263d
00000380: 2acd 173e fc16 15be 7c7d bbbe 905b cbbc
00000390: 99a9 c13c 4834 0f3e 1e19 01be ca87 813e
000003a0: 4edf aebd 5b92 59be 299b a33e 8a18 a03e
000003b0: 3107 54be 06e1 433d 3ad7 8fbe f37b 6bbe
000003c0: 6611 4e3e 9b04 063e 3c7b 333e 1a6b c03e
000003d0: 91df a23d 8480 a9be e645 493e 32d7 9fbe
000003e0: d9f2 81bd fc12 5dbe 8d1d 03be 4c19 03be
000003f0: d724 9b3e 754f 953e 97f7 3a3e 1381 3cbc

sequential_2/dense_7/MatMul f4 [64, 64]
-0.038191035 -0.1961439 0.024361491 -0.2102151 0.21181132 -0.20463085 -0.08615197 -0.033537462
-0.17344004 0.004958734 0.02531588 -0.14793885 0.051221475 -0.19856998 0.019556329 -0.19372636
0.052451953 0.13738035 0.071800604 -0.17247966 -0.15596944 -0.1594322 0.1134475 -0.012498438
0.013280109 -0.13033693 0.028655276 -0.005191073 0.081787124 0.046741888 -0.10774132 0.20981838
-0.19092375 0.09463532 -0.05453521 -0.0022045523 -0.19240089 0.1703497 -0.04154922 0.088485405
-0.07328978 0.040849462 -0.018506393 -0.104543515 -0.09708981 -0.060526475 -0.113215216 -0.10021313
0.014956534 0.061290607 -0.12610647 0.14324619 -0.044340268 0.11194424 0.031308398 0.16169988
-0.10599009 -0.059711307 0.04244052 -0.10322614 -0.16253848 0.13737915 0.079438016 0.00751853
-0.12282269 -0.09653216 -0.037392735 -0.22816354 -0.039046742 -0.05791766 -0.062211946 -0.013049959
-0.14779015 0.13006693 0.13442786 -0.10040543 0.13129649 0.13492262 -0.008895542 -0.012820073
0.04301592 -0.12718372 -0.19037972 -0.2356741 -0.075648725 -0.031393725 -0.16291 -0.16958356
-0.05766665 0.19057746 -0.019371158 -0.13393806 -0.054167733 -0.17384583 -0.041499365 0.015241099
0.027457787 0.17808622 -0.08559169 0.08764247 0.03700407 0.1322669 -0.026574157 -0.09297178
0.049847454 -0.17120829 0.18474391 -0.1305989 -0.0655274 0.024969656 -0.23549873 -0.22710258
-0.024720792 -0.20140843 0.04022478 -0.07089033 0.18305361 0.12390678 -0.1132319 0.110662304
0.12684421 0.0971343 -0.21084702 0.0016979132 0.06843324 -0.0037547771 -0.053606495 0.028188799
0.14523138 -0.12241896 -0.055376522 0.0977118 -0.097707585 -0.21354395 -0.15282024 -0.19181947
-0.17105822 -0.049974434 -0.19247903 0.073176794 -0.13436697 -0.0059640915 0.07056912 -0.22891383
0.06714419 -0.21694855 -0.16691098 -0.011489261 -0.08023604 0.025380105 0.09745446 0.10798736
-0.14735758 -0.05166006 -0.07443368 -0.004414244 -0.15191734 -0.11468218 0.015070295 0.18720518
0.13360174 -0.18408553 0.09671904 -0.116401345 0.07274426 -0.069201805 0.020108422 0.024732355
0.17786472 -0.22792348 -0.12018918 0.13236581 -0.10574468 -0.03398324 -0.10990686 -0.08256704
0.04877896 -0.100936085 0.18168406 0.16166177 -0.0057145646 0.16144808 0.02721622 -0.17512907
-0.066116564 -0.0684869 -0.03301797 -0.050253477 0.08547487 0.06199411 0.06845482 -0.22471516
-0.182228 -0.24250598 -0.058234856 -0.06391121 0.15200599 0.1632111 0.14951117 -0.0006631408
-0.14829901 -0.05691856 0.081522964 -0.08819525 0.17575216 -0.10357656 0.07460726 -0.18415332
-0.12681368 -0.11510894 -0.12177938 -0.056095865 -0.12979403 0.15388598 0.16083701 -0.14639649
-0.041435875 0.13041969 0.09878348 -0.017571323 -0.2477367 -0.066647336 -0.19159934 -0.19976592
-0.06831113 0.09996229 0.08849312 -0.08513015 -0.033993483 -0.12387422 0.09629015 0.13435526
0.13698216 0.07037188 0.027947133 0.023898788 0.085815385 0.10066975 -0.16812015 -0.20053618
-0.058685593 -0.20571579 -0.11150436 -0.025544737 0.012141004 0.027468594 0.038850334 -0.11170644
0.15453096 -0.013109462 -0.057374585 -0.13881503 0.11202263 0.1178928 0.10904444 -0.1012632
00000000: 346e 1cbd f2d9 48be c091 c73c a142 57be
00000010: 11e5 583e c08a 51be 7270 b0bd 945e 09bd
00000020: 449a 31be e07c a23b 4063 cf3c 487d 17be
00000030: 9ccd 513d ee55 4bbe 9834 a03c 3460 46be
00000040: dcd7 563d 6fad 0c3e 320c 933d 829e 30be
00000050: 74b6 1fbe 3242 23be 2a57 e83d 40c6 4cbc
00000060: d094 593c 0b77 05be 78be ea3c e019 aabb
00000070: 0280 a73d 6c74 3f3d 7ba7 dcbd a1da 563e
00000080: 8481 43be 2ad0 c13d 5060 5fbd 407a 10bb
00000090: bd04 45be 2770 2e3e 842f 2abd d637 b53d
000000a0: f418 96bd c451 273d b89a 97bc e91a d6bd
000000b0: 06d7 c6bd 9cea 77bd 61dd e7bd 8b3c cdbd
000000c0: 400c 753c dc0b 7b3d 0e22 01be 21af 123e
000000d0: 249e 35bd 0643 e53d 3c3d 003d a794 253e
000000e0: 5511 d9bd d893 74bd 1cd6 2d3d 3a68 d3bd
000000f0: 7d70 26be 1fad 0c3e 66b0 a23d 005e f63b
00000100: 768a fbbd a7b2 c5bd 2029 19bd b4a3 69be
00000110: 7aef 1fbd 113b 6dbd f4d1 7ebd 7fcf 55bc
00000120: 4d56 17be 4430 053e 75a7 093e 5da1 cdbd
00000130: 9672 063e 2829 0a3e 9bbe 11bc 490b 52bc
00000140: 7631 303d 733c 02be e7f2 42be 8d54 71be
00000150: b8ed 9abd b596 00bd e1d1 26be 50a7 2dbe
00000160: dd33 6cbd bd26 433e 43b0 9ebc 0f27 09be
00000170: fcde 5dbd a404 32be 3dfb 29bd cdb5 793c
00000180: 27ef e03c 3c5c 363e b24a afbd e57d b33d
00000190: 9491 173d f970 073e 0cb2 d9bc fd67 bebd
000001a0: d82c 4c3d 3a51 2fbe 822d 3d3e b8bb 05be
000001b0: 3b33 86bd 2a8d cc3c 9426 71be 948d 68be
000001c0: 4283 cabc 033e 4ebe bdc2 243d f32e 91bd
000001d0: 6872 3b3e d6c2 fd3d 20e6 e7bd eba2 e23d
000001e0: 73e3 013e 59ee c63d 48e8 57be 838c de3a
000001f0: ba26 8c3d b512 76bb 7c92 5bbd 32ec e63c
00000200: 89b7 143e cbb6 fabd 7ed2 62bd 201d c83d
00000210: ea1a c8bd 44ab 5abe e97c 1cbe 536c 44be
00000220: e329 2fbe feb1 4cbd 3919 45be b7dd 953d
00000230: 7f97 09be 6d6e c3bb 8b86 903d 6368 6abe
00000240: e582 893d c327 5ebe b6ea 2abe 743d 3cbc
00000250: cb52 a4bd f0e9 cf3c 3496 c73d 7a28 dd3d
00000260: e8e4 16be 8099 53bd af70 98bd 5da5 90bb
00000270: 3890 1bbe 7ede eabd 66e9 763c b7b2 3f3e
00000280: e5ce 083e eb80 3cbe a214 c63d d463 eebd
00000290: f1fa 943d adb9 8dbd 6bba a43c 829b ca3c
000002a0: 2b22 363e c664 69be bf25 f6bd e78a 073e
000002b0: ab90 d8bd 0332 0bbd d916 e1bd e918 a9bd
000002c0: 72cc 473d 94b7 cebd 630b 3a3e aa8a 253e
000002d0: 3e41 bbbb a552 253e 8df4 de3c 0955 33be
000002e0: 1f68 87bd dc42 8cbd da3d 07bd 97d6 4dbd
000002f0: 730d af3d 89ed 7d3d 0a32 8c3d bb1b 66be
00000300: fa99 3abe 7d53 78be ac87 6ebd e1e3 82bd
00000310: 75a7 1b3e d020 273e 7519 193e a0d6 2dba
00000320: b2db 17be 7023 69bd 83f5 a63d b69f b4bd
00000330: 60f8 333e f31f d4bd b1cb 983d b092 3cbe
00000340: 72db 01be 3cbe ebbd 7867 f9bd c7c4 65bd
00000350: bae8 04be 4994 1d3e 75b2 243e f6e8 15be
00000360: aab8 29bd bd8c 053e fe4e ca3d bcf1 8fbc
00000370: b1ae 7dbe 667e 88bd 9e32 44be 708f 4cbe
00000380: b5e6 8bbd 07b9 cc3d e23b b53d b758 aebd
00000390: c03c 0bbd c4b1 fdbd c533 c53d 6d94 093e
000003a0: 0d45 0c3e 221f 903d 63f1 e43c 64c7 c33c
000003b0: fabf af3d f12b ce3d b027 2cbe 5b59 4dbe
000003c0: 4e60 70bd 29a7 52be 665c e4bd 3243 d1bc
000003d0: 10eb 463c d105 e13c 8721 1f3d 59c6 e4bd
000003e0: 5d3d 1e3e 12c9 56bc 9d01 6bbd 8725 0ebe
000003f0: 1f6c e53d c871 f13d b152 df3d 1563 cfbd

sequential_2/dense_8/MatMul f4 [1, 64]
0.008671701 -0.25904027 -0.07500394 -0.15778989 -0.25927255 0.35503727 -0.12624206 -0.26087096
0.35424408 0.26248333 -0.22381024 0.34233236 0.34043032 -0.16387008 0.25075823 0.38431218
-0.12838747 0.12882717 0.34214833 0.09259165 -0.08022821 0.3912408 0.32191095 0.09007819
0.29071042 0.3589307 0.0016220661 0.14586736 -0.21130867 0.36767316 0.3670568 0.12577239
-0.14033557 -0.28648645 0.30995864 -0.13338444 -0.26529324 0.267482 0.4070587 0.25756058
0.08705105 0.35860324 -0.037423253 0.28268823 -0.17707108 0.07441417 0.115126565 0.16212897
0.24675512 -0.10611518 -0.19385272 -0.18904951 -0.26815584 0.26058078 0.17606737 0.3603642
-0.06595436 -0.055855278 -0.24746017 0.2977263 0.278007 -0.056201946 -0.14733715 0.2606191
00000000: c013 0e3c eda0 84be aa9b 99bd ac93 21be
00000010: 5fbf 84be 72c7 b53e 9945 01be e190 85be
00000020: 7b5f b53e 3764 863e 832e 65be 3046 af3e
00000030: e24c ae3e 8fcd 27be 6263 803e 91c4 c43e
00000040: 0178 03be 45eb 033e 112e af3e b1a0 bd3d
00000050: b04e a4bd b750 c83e 83d1 a43e ea7a b83d
00000060: ffd7 943e c4c5 b73e 829b d43a 415e 153e
00000070: 4d61 58be a83f bc3e deee bb3e 7aca 003e
00000080: 21b4 0fbe 5aae 92be e6b2 9e3e ee95 08be
00000090: 84d4 87be 67f3 883e ff69 d03e fbde 833e
000000a0: d247 b23d d89a b73e 2049 19bd 83bc 903e
000000b0: 1f52 35be 7566 983d 7ac7 eb3d 2305 263e
000000c0: 60ad 7c3e ea52 d9bd 5481 46be 3296 41be
000000d0: b94b 89be d86a 853e 014b 343e a881 b83e
000000e0: 1413 87bd 81c8 64bd 3366 7dbe 956f 983e
000000f0: ef56 8e3e 0334 66bd 8ddf 16be de6f 853e
