Convert ML Model/Convert DNN Model/dnn_model.tflite (tflite, 21760 bytes, 7 tensors)

dense_1/bias f4 [64]
0.07219316 0.049448047 0.081616744 -0.038213618 0.07452318 0.07539351 -0.027723625 -0.022010712
-0.003051977 0.09202977 -0.030189482 0.073060505 0.084252454 0.0854537 0.07749631 0.07256049
0.08206462 0.08426373 -0.01569931 0.08316769 -0.026273927 -0.03779085 -0.03657901 0.081788786
0.07507353 0.07659539 0.011626394 -0.027927008 0.08209028 0.08511732 -0.025454212 -0.032450657
0.085013345 0.0 -0.030439785 -0.03556435 0.08076791 -0.026874123 -0.011567894 -0.055076398
-0.026532061 -0.039150015 0.08204347 0.07460882 -0.04883343 0.076551616 0.087311216 0.087149814
0.080818884 -0.030035984 0.071950704 -0.038661297 0.07491923 -0.023952706 0.075854145 -0.020422878
0.07566219 -0.023218144 0.092289984 0.07937108 -0.022557316 0.08557101 -0.03454081 0.07635046
00000000: 02da 933d 098a 4a3d ae26 a73d e285 1cbd
00000010: 9c9f 983d ea67 9a3d a81c e3bc cf4f b4bc
00000020: ad03 48bb 1b7a bc3d ef4f f7bc bfa0 953d
00000030: 8d8c ac3d 5902 af3d 63b6 9e3d 989a 943d
00000040: 7f11 a83d 7692 ac3d d79b 80bc d253 aa3d
00000050: 6b3c d7bc 94ca 1abd dfd3 15bd e180 a73d
00000060: 27c0 993d 0bde 9c3d a27c 3e3c 2ec7 e4bc
00000070: f31e a83d fd51 ae3d 5a85 d0bc fbea 04bd
00000080: 7a1b ae3d 0000 0000 db5c f9bc edab 11bd
00000090: a569 a53d 1f27 dcbc 4487 3dbc ca97 61bd
000000a0: c459 d9bc c45b 20bd 6806 a83d 82cc 983d
000000b0: 9005 48bd 18c7 9c3d 39d0 b23d 9a7b b23d
000000c0: 5f84 a53d 060e f6bc e45a 933d 4f5b 1ebd
000000d0: 416f 993d 7738 c4bc 6b59 9b3d e14d a7bc
000000e0: c7f4 9a3d fa33 bebc 8802 bd3d 4e8d a23d
000000f0: 1fca b8bc db3f af3d aa7a 0dbd a15d 9c3d

dense/bias f4 [64]
0.09568575 0.058460534 0.085169055 0.08222599 0.077176414 0.09662281 0.04578235 0.07276789
-0.0028725718 -0.0036132024 0.05249313 0.08383191 0.08719446 0.036142472 0.08476059 0.08335047
0.09725326 0.08029985 0.08162655 0.09210836 0.04780582 0.0040864325 0.084607296 0.084416375
-0.036950536 0.022832686 -0.033599485 -0.029597254 0.06814446 0.037273712 0.08812461 -0.062461816
0.08233772 0.08005671 0.06032727 -0.0031078379 0.0911589 0.03732419 0.080915034 -0.058436476
0.10680135 0.053220563 0.07104246 0.04003861 0.07254272 0.08291791 0.071063146 0.0489545
0.07647209 0.08520496 0.060208242 0.076369606 -0.027651768 -0.025781343 0.0453444 0.08676802
0.04211457 0.10156375 0.048375618 0.08225515 0.086898744 0.086561665 0.041887302 0.04170869
00000000: e4f6 c33d 5074 6f3d 1d6d ae3d 1a66 a83d
00000010: ab0e 9e3d 2ee2 c53d 4686 3b3d 5507 953d
00000020: c241 3cbb 7acb 6cbb 0903 573d 10b0 ab3d
00000030: 0293 b23d 210a 143d f696 ad3d a7b3 aa3d
00000040: b82c c73d 3f74 a43d d22b a73d 4fa3 bc3d
00000050: 09d0 433d 7be7 853b 9746 ad3d 7ee2 ac3d
00000060: 7259 17bd 9d0b bb3c 9d9f 09bd f175 f2bc
00000070: 538f 8b3d 52ac 183d ad7a b43d f6d7 7fbd
00000080: aea0 a83d c6f4 a33d ba19 773d deac 4bbb
00000090: 84b1 ba3d 40e1 183d c8b6 a53d 165b 6fbd
000000a0: abba da3d cefd 593d b67e 913d 87ff 233d
000000b0: 4791 943d ddd0 a93d 8e89 913d 8484 483d
000000c0: 669d 9c3d f07f ae3d eb9c 763d ab67 9c3d
000000d0: f685 e2bc 6533 d3bc 0dbb 393d 6fb3 b13d
000000e0: 5480 2c3d a800 d03d 8325 463d 6375 a83d
000000f0: f8f7 b13d 3e47 b13d 0592 2b3d bbd6 2a3d

sequential/normalization/truediv;sequential/normalization/Maximum f4 [1, 9]
0.055048186 2.022887 2.0965698 2.0000002 3.023716 2.8005598 2.8005598 4.588315
1e+07
00000000: 357a 613d fb76 0140 332e 0640 0100 0040
00000010: 9084 4140 5f3c 3340 5f3c 3340 7ad3 9240
00000020: 8096 184b

Const f4 [1, 9]
39.5 0.575 0.65000004 0.5 0.125 0.15 0.15 0.05
0.0
00000000: 0000 1e42 3333 133f 6766 263f 0000 003f
00000010: 0000 003e 9a99 193e 9a99 193e cdcc 4c3d
00000020: 0000 0000

sequential/dense/MatMul f4 [64, 9]
0.3014855 0.15648578 -0.3378787 0.0029701008 -0.38092873 -0.05906653 -0.16111705 -0.24173665
-0.07535362 -0.17414989 -0.15514551 -0.23810907 0.19249502 -0.2950541 0.060007177 -0.12876464
0.12650932 0.003422141 0.06130542 0.21446863 -0.102255374 -0.17169213 -0.2553364 0.16190578
-0.2879689 -0.018643523 0.18394896 -0.23761575 -0.29874876 -0.11085789 0.080840126 -0.039166033
0.014909617 0.05311525 0.1500188 0.07522452 0.15129358 -0.34584692 -0.006912774 0.20057479
-0.0069211735 0.0770135 -0.28871554 0.12769645 0.11497003 0.06012683 0.112218656 0.037044432
-0.09060533 -0.013839612 -0.30473787 -0.33753264 -0.3037475 -0.09960091 0.15515986 -0.11455947
-0.010068214 -0.28848144 -0.29024744 -0.2096182 0.107143834 -0.042990062 -0.17444675 0.11803437
0.094344325 0.10882212 -0.1326776 -0.29945403 -0.33998466 -0.27623597 -0.10286333 0.047031075
0.20166074 0.32017586 -0.07361818 0.18814789 -0.12760618 0.15976806 0.047989205 -0.1487734
0.035481036 0.10694563 -0.2914776 0.3863496 0.30894026 0.25004667 -0.09544744 0.049696658
-0.11057763 -0.03488013 0.16478266 0.2689405 0.096924394 0.18831201 0.18869576 -0.09787612
-0.2640636 -0.13833645 0.0926615 0.11550548 0.048042566 -0.090135 -0.15698494 -0.27115262
-0.025162613 -0.2506896 0.0073829703 -0.122577876 -0.13771228 -0.13144222 -0.10508367 0.085095726
0.15544742 0.03757241 0.24968818 -0.085900806 0.004256457 0.09677344 0.20995858 -0.22729328
0.033923343 -0.03926336 -0.08773989 -0.3002972 -0.07400315 -0.090296775 0.32792726 0.2661226
-0.14666958 0.003673596 -0.26877597 -0.34839457 -0.020965915 -0.06699063 0.06932911 0.19770686
0.06989586 -0.35937026 -0.25659174 0.10033184 0.18442006 0.03440246 -0.26984322 -0.122534126
-0.08907327 0.21120183 0.32088515 0.29692066 0.10615941 -0.29081282 -0.34556648 0.00862687
-0.22668213 -0.004224427 -0.35922387 0.08731558 0.12004934 0.015160094 0.10540426 0.19636862
-0.22678344 -0.013163328 -0.12816496 -0.025391832 0.26655623 0.13086554 -0.30216414 0.09255913
0.15583485 0.03827212 0.26817128 0.3285514 0.1769074 -0.032712284 0.09892738 0.14725599
-0.33453313 -0.3478835 0.12100895 0.080721885 -0.060324807 -0.19138265 -0.16357604 -0.31196898
0.006891615 0.17630875 -0.18517719 -0.10794849 -0.22062138 0.22033611 -0.27184978 0.03975794
-0.100898676 0.05218433 0.209008 0.23391034 0.12462493 -0.15359384 -0.22969232 -0.13417876
0.2875015 0.08673142 -0.17301448 0.15741862 -0.18787955 -0.015955115 -0.1890195 -0.32127786
-0.10488788 0.024404073 0.32431167 -0.07306398 -0.25662395 -0.07641022 0.2283663 0.2704158
-0.21725439 0.22601222 -0.2110528 -0.012320806 0.13522144 -0.092954814 0.24296361 -0.0060030106
-0.14678204 -0.1605322 0.014886948 0.15144026 0.092126556 -0.15131073 -0.17420617 0.040610954
-0.2169111 0.2553654 -0.04580481 -0.09678645 0.10667139 0.090430446 0.16532655 -0.05375805
-0.18593702 -0.14315145 0.055436462 -0.14622767 0.06422175 -0.06648028 0.253955 -0.13896717
0.15495412 -0.079269744 -0.07457181 -0.014001608 0.28818285 5.8461097e-05 0.10650591 -0.15243214
00000000: 4f5c 9a3e cf3d 203e 70fe acbe 06a6 423b
00000010: 1709 c3be bfef 71bd defb 24be d089 77be
00000020: 0053 9abd 5954 32be 77de 1ebe ddd2 73be
00000030: 6a1d 453e 5511 97be 16ca 753d e1da 03be
00000040: a98b 013e 0046 603b 641b 7b3d aa9d 5b3e
00000050: 446b d1bd 10d0 2fbe 74bb 82be a1ca 253e
00000060: a970 93be 4dba 98bc 1e5d 3c3e 8b51 73be
00000070: 99f5 98be 7609 e3bd 828f a53d 906c 20bd
00000080: 7747 743c 608f 593d 879e 193e 500f 9a3d
00000090: b4ec 1a3e d912 b1be 8d84 e2bb 7a63 4d3e
000000a0: 03cb e2bb 41b9 9d3d 86d2 93be dcc2 023e
000000b0: 6875 eb3d 8d47 763d e5d2 e53d e7bb 173d
000000c0: 4a8f b9bd 8abf 62bc 9a06 9cbe 14d1 acbe
000000d0: cb84 9bbe 90fb cbbd 3ae2 1e3e 289e eabd
000000e0: 26f5 24bc d7b3 93be 509b 94be 27a6 56be
000000f0: 3a6e db3d 5916 30bd 2ba2 32be 01bc f13d
00000100: 9937 c13d 22de de3d a3dc 07be 0a52 99be
00000110: 7812 aebe cd6e 8dbe 02aa d2bd a8a3 403d
00000120: 2780 4e3e 17ee a33e 21c5 96bd d7a9 403e
00000130: 32ab 02be 3d9a 233e 5490 443d 0e58 18be
00000140: 9054 113d 4f06 db3d 8d3c 95be 9dcf c53e
00000150: 6b2d 9e3e 1e06 803e f379 c3bd b98e 4b3d
00000160: 8676 e2bd 78de 0ebd c9bc 283e 92b2 893e
00000170: 4c80 c63d ddd4 403e 7639 413e 4673 c8bd
00000180: 5833 87be 12a8 0dbe 50c5 bd3d 238e ec3d
00000190: 48c8 443d b398 b8bd a9c0 20be 84d4 8abe
000001a0: d321 cebc 635a 80be d8ec f13b 1c0a fbbd
000001b0: 7304 0dbe ca98 06be 1b36 d7bd ab46 ae3d
000001c0: 9c2d 1f3e 87e5 193d 42ae 7f3e c3ec afbd
000001d0: c079 8b3b 2731 c63d 62ff 563e 92bf 68be
000001e0: 34f3 0a3d 9ed2 20bd f9b0 b3bd 8ec0 99be
000001f0: f78e 97bd 84ed b8bd 15e6 a73e 3941 883e
00000200: 8d30 16be b7c0 703b 019d 89be c660 b2be
00000210: b6c0 abbc 6232 89bd 6cfc 8d3d ab73 4a3e
00000220: 9025 8f3d 61ff b7be fe5f 83be c87a cd3d
00000230: 9dd8 3c3e 98e9 0c3d e428 8abe 2cf3 fabd
00000240: 0c6c b6bd 4b45 583e 0f4b a43e fc05 983e
00000250: 1b6a d93d 6be5 94be 17ee b0be b757 0d3c
00000260: 5c1f 68be 106d 8abb 31ec b7be 83d2 b23d
00000270: 6edc f53d 0b62 783c 30de d73d db14 493e
00000280: eb39 68be 00ab 57bc ad3d 03be 8802 d0bc
00000290: 0f7a 883e 9e01 063e 42b5 9abe a48f bd3d
000002a0: 2c93 1f3e 3ac3 1c3d bf4d 893e e437 a83e
000002b0: 3727 353e 51fd 05bd 709a ca3d 46ca 163e
000002c0: ed47 abbe c91d b2be 8ad3 f73d 8451 a53d
000002d0: 2517 77bd d0f9 43be 7a80 27be 66ba 9fbe
000002e0: 0fd3 e13b 488a 343e 179f 3dbe 1914 ddbd
000002f0: 92ea 61be ca9f 613e e52f 8bbe 39d9 223d
00000300: f7a3 cebd 3cbf 553d 3106 563e 3186 6f3e
00000310: 5b3b ff3d b447 1dbe 7734 6bbe 2866 09be
00000320: 6633 933e 3ea0 b13d b52a 31be 5932 213e
00000330: 7f63 40be 4db4 82bc 548e 41be 887e a4be
00000340: 75cf d6bd 0deb c73c 2e0c a63e 91a2 95bd
00000350: 3764 83be f67c 9cbd dbd8 693e f173 8a3e
00000360: ef77 5ebe bf6f 673e 3a1e 58be 35dd 49bc
00000370: 7d77 0a3e 185f bebd 74cb 783e e7b4 c4bb
00000380: 084e 16be 8e62 24be 63e8 733c 2813 1b3e
00000390: d9ac bc3d 33f1 1abe 1a63 32be ac57 263d
000003a0: f21d 5ebe 41bf 823e d39d 3bbd f937 c6bd
000003b0: 8876 da3d 9933 b93d 5d4b 293e 6731 5cbd
000003c0: 4666 3ebe 4b96 12be 5811 633d b5bc 15be
000003d0: b186 833d d026 88bd 6406 823e 694d 0ebe
000003e0: 4bac 1e3e 2d58 a2bd 1bb9 98bd 0067 65bc
000003f0: b48c 933e 2034 7538 c51f da3d 2c17 1cbe

sequential/dense_1/MatMul f4 [64, 64]
0.2105299 0.17979011 0.055023618 0.24548861 0.088242225 0.060105875 0.16701674 -0.011853901
0.10095821 -0.083564244 0.2379198 0.028260058 -0.029778387 0.25967327 0.12456644 0.08806999
-0.019660681 -0.0073319543 -0.08301384 0.1545772 -0.095090345 0.010429302 0.2635933 0.2398722
-0.19245006 0.22438242 -0.0781622 0.22584844 0.117016785 -0.026967417 0.06682559 -0.183715
0.20322566 0.29519472 -0.039679743 -0.11776222 -0.065928616 -0.05861682 0.13124576 -0.036603488
0.08367021 -0.07843388 0.14515808 0.2656421 0.23375171 -0.0058875657 0.09019043 0.24345338
0.23722275 -0.022778708 0.19570372 0.10866435 0.2083959 -0.121356346 0.13013883 0.051724397
0.01982466 0.25593835 0.25395727 0.17664549 0.22356203 -0.032417517 0.110642664 0.17596257
0.20123003 0.17882864 0.09158589 0.2159888 -0.01790124 0.19765837 -0.09188189 0.082920566
-0.09232022 0.01639248 -0.02848724 0.1962132 -0.11095563 0.19914402 0.026727743 0.01168096
0.0077015157 0.16790149 0.028559504 -0.08556391 0.16905779 -0.04748992 0.21259114 -0.08008276
-0.017884111 -0.09987136 0.24400803 -0.13827342 -0.111650676 -0.016185759 -0.037812337 -0.24716061
-0.048649058 -0.012802507 -0.040319547 -0.12827718 -0.05996791 -0.0095165735 -0.038299654 0.040666856
0.25250465 0.077006906 -0.10521311 0.275336 0.0069756196 0.12680498 -0.083903454 0.21824323
-0.08685752 -0.03030262 0.09841692 0.072914444 0.06562843 0.0024165045 0.24059683 -0.15610225
-0.011287519 0.1520859 0.19200075 0.05771346 0.00076410384 0.08462115 -0.15828095 0.22358415
0.28719297 0.03536615 0.14057341 0.22843523 -0.090440325 0.16246636 0.2569527 0.10526115
-0.010940254 -0.04603671 0.08136532 0.25734487 0.1294209 0.10252547 0.1316742 -0.05954408
0.14892994 0.28353125 0.19524507 0.20561072 0.21869831 -0.070560135 0.18505098 0.0064487285
-0.10008055 0.20907158 -0.071980506 -0.071625575 0.29098862 -0.04401703 -0.0031392379 -0.13783853
-0.089981474 0.1879409 -0.014336371 0.28476617 -0.09572565 -0.08145571 0.02819535 -0.096413985
0.26575115 0.042290736 -0.062327694 0.15537013 0.18634799 -0.010278855 0.26340824 0.032001786
-0.021104168 0.25637487 0.11004981 0.034542456 -0.13685103 0.08660333 0.20334636 -0.068673916
0.041266102 0.17273404 -0.044892173 -0.06391936 -0.017792806 -0.03323658 -0.05693666 -0.055439252
0.0028858432 -0.08014227 0.07083771 -0.0535489 0.07074773 0.010433673 -0.19487615 0.06439565
0.11935787 0.045418832 0.03445338 0.035721797 0.14316456 -0.08451571 -0.1414319 0.08320687
-0.08023852 -0.19610699 -0.031706594 -0.15489568 0.20564164 -0.0005387324 -0.008632852 0.0624754
-0.15446086 -0.16255084 -0.079460084 -0.19850396 -0.22529325 0.01741736 -0.026492102 -0.07698993
0.0078265695 0.00823785 -0.1073644 0.12460512 0.025071274 0.07744651 -0.127508 -0.056789618
-0.18116234 -0.10808291 0.164298 0.07827916 -0.034777574 -0.2380942 -0.010546132 0.07930558
-0.15317458 0.09520262 0.14095853 0.006298323 0.14212455 0.020955773 0.09863212 -0.19981198
0.09050016 0.029286496 0.04879361 -0.16335985 0.022088062 0.092495434 0.098548725 -0.131681
00000000: 2695 573e e61a 383e 7260 613d 5e61 7b3e
00000010: 57b8 b43d 9431 763d 7006 2b3e dd36 42bc
00000020: 2ec3 ce3d bb23 abbd 40a1 733e a381 e73c
00000030: cef1 f3bc e5f3 843e b11c ff3d 0a5e b43d
00000040: 700f a1bc e440 f0bb 2903 aabd 7c49 1e3e
00000050: babe c2bd aadf 2a3c b3f5 863e 0fa1 753e
00000060: a111 45be 81c4 653e 8113 a0bd d044 673e
00000070: 7fa6 ef3d c6ea dcbc dbdb 883d c91f 3cbe
00000080: 631a 503e c323 973e 3a87 22bd 522d f1bd
00000090: 9505 87bd 3118 70bd 4a65 063e 8aed 15bd
000000a0: 495b ab3d f1a1 a0bd 52a4 143e 3e02 883e
000000b0: 9c5c 6f3e 7bec c0bb c3b5 b83d d84b 793e
000000c0: 85ea 723e 6a9a babc 8e66 483e 6a8b de3d
000000d0: bc65 553e ad89 f8bd 1d43 053e f6dc 533d
000000e0: 5367 a23c 5a0a 833e b006 823e 8ee2 343e
000000f0: 72ed 643e 3bc8 04bd 9f98 e23d 882f 343e
00000100: 3f0f 4e3e db1e 373e 6291 bb3d 2b2c 5d3e
00000110: 9fa5 92bc f566 4a3e 932c bcbd 42d2 a93d
00000120: 6212 bdbd 8649 863c 135e e9bc 1dec 483e
00000130: b53c e3bd 69ec 4b3e 24f4 da3c 7f61 3f3c
00000140: ff5c fc3b 5eee 2b3e 9ff5 e93c 223c afbd
00000150: 7c1d 2d3e ca84 42bd 7eb1 593e 6e02 a4bd
00000160: b381 92bc 5b89 ccbd 3edd 793e 8c97 0dbe
00000170: 1ca9 e4bd ff97 84bc 1ce1 1abd ac17 7dbe
00000180: 3c44 47bd 9bc1 51bc 1c26 25bd 185b 03be
00000190: e9a0 75bd 67eb 1bbc 19e0 1cbd 4a92 263d
000001a0: 4a48 813e ccb5 9d3d f979 d7bd d7f8 8c3e
000001b0: bd93 e43b 2ad9 013e 93d5 abbd 277b 5f3e
000001c0: 5be2 b1bd 333d f8bc cf8e c93d 2b54 953d
000001d0: 3368 863d 385e 1e3b 045f 763e 45d9 1fbe
000001e0: 49ef 38bc 68bc 1b3e d89b 443e f364 6c3d
000001f0: 244e 483a da4d ad3d 6714 22be 3ef3 643e
00000200: f50a 933e 19dc 103d 7af2 0f3e edea 693e
00000210: c738 b9bd 955d 263e 4e8f 833e 2893 d73d
00000220: c03e 33bc fd90 3cbd dca2 a63d b5c2 833e
00000230: ea86 043e e0f8 d13d 9ad5 063e 7ee4 73bd
00000240: 1781 183e 022b 913e 53ee 473e 9e8b 523e
00000250: 73f2 5f3e d581 90bd 017e 3d3e db4f d33b
00000260: 08f7 ccbd dc16 563e 846a 93bd 6eb0 92bd
00000270: 76fc 943e 344b 34bd acbb 4dbb 8b25 0dbe
00000280: 3548 b8bd 9473 403e 19e3 6abc dfcc 913e
00000290: cf0b c4bd 40d2 a6bd eff9 e63c b274 c5bd
000002a0: 8910 883e 0d39 2d3d 534b 7fbd 5919 1f3e
000002b0: 02d2 3e3e a568 28bc 72dd 863e 4e14 033d
000002c0: a6e2 acbc 9143 833e cb61 e13d 647c 0d3d
000002d0: ad22 0cbe 165d b13d 073a 503e e9a4 8cbd
000002e0: a506 293d 31e1 303e dbe0 37bd 27e8 82bd
000002f0: 38c2 91bc 1523 08bd 6a36 69bd 4514 63bd
00000300: 6a20 3d3b a121 a4bd 5c13 913d 1756 5bbd
00000310: 30e4 903d fff1 2a3c 9d8d 47be dee1 833d
00000320: e671 f43d 1909 3a3d fd1e 0d3d 0551 123d
00000330: bb99 123e 9316 adbd 86d3 10be 5d68 aa3d
00000340: 1854 a4bd 45d0 48be c6de 01bd f99c 1ebe
00000350: b993 523e b839 0dba ce70 0dbc 34e6 7f3d
00000360: fd2a 1ebe ba73 26be f8bb a2bd 9f44 4bbe
00000370: 46b3 66be daae 8e3c f705 d9bc e5ac 9dbd
00000380: 033b 003c 0cf8 063c dee1 dbbd f830 ff3d
00000390: 4662 cd3c 479c 9e3d 7591 02be 3b9c 68bd
000003a0: 9f82 39be 935a ddbd bc3d 283e d350 a03d
000003b0: ee72 0ebd f7ce 73be afc9 2cbc f76a a23d
000003c0: ccd9 1cbe 97f9 c23d 6f57 103e 2a62 ce3b
000003d0: 1989 113e 71ab ab3c a3ff c93d 839b 4cbe
000003e0: 2658 b93d 3cea ef3c cfdb 473d ce47 27be
000003f0: 06f2 b43c 3f6e bd3d ead3 c93d 62d7 06be

sequential/dense_2/MatMul f4 [1, 64]
0.37706915 0.084017314 0.20335877 -0.18799515 0.2919812 0.16329527 -0.2558849 -0.25621402
-0.2501057 0.097032666 -0.055301566 0.2621035 0.23086037 0.13026805 0.34933853 0.3146593
0.11822597 0.11235556 -0.067908846 0.10737394 -0.09203193 -0.18741265 -0.26291084 0.108671635
0.35574746 0.3728778 -0.07642829 -0.25980863 0.22168092 0.095545895 -0.18261304 -0.19471143
0.18586193 -0.111475766 -0.18121004 -0.2508047 0.1755162 -0.16980077 -0.20869394 -0.14429958
-0.25960004 -0.24944814 0.2013575 0.39031765 -0.09112496 0.1849709 0.34606048 0.11655925
0.1100116 -0.20467065 0.31424236 -0.25170448 0.32497394 -0.107020214 0.38070503 -0.20131075
0.30873087 -0.23688951 0.24983855 0.36841086 -0.076566465 0.2837567 -0.021223696 0.38540223
00000000: 350f c13e 4511 ac3d 483d 503e cd81 40be
00000010: 8f7e 953e e036 273e 5803 83be 7c2e 83be
00000020: db0d 80be 10b9 c63d e583 62bd 6e32 863e
00000030: a966 6c3e fd64 053e 80dc b23e 061b a13e
00000040: 7520 f23d ac1a e63d cb13 8bbd dee6 db3d
00000050: 3d7b bcbd 1ae9 3fbe 409c 86be 3c8f de3d
00000060: 8824 b63e d7e9 be3e 6f86 9cbd a305 85be
00000070: 5300 633e 91ad c33d eafe 3abe 6f62 47be
00000080: 9752 3e3e 684d e4bd 208f 39be 7969 80be
00000090: 85ba 333e 41e0 2dbe ddb3 55be 45c3 13be
000000a0: 4cea 84be 556f 7fbe a930 4e3e b7d7 c73e
000000b0: b99f babd 0369 3d3e d72e b13e 9eb6 ee3d
000000c0: c34d e13d 2f95 51be 60e4 a03e 69df 80be
000000d0: fc62 a63e 6a2d dbbd c5eb c23e 6824 4ebe
000000e0: f911 9e3e 2a93 72be add5 7f3e 59a0 bc3e
000000f0: e1ce 9cbd 8f48 913e 51dd adbc 7153 c53e
