app/src/main/ml/dnn2_model.tflite (tflite, 21980 bytes, 7 tensors)

sequential/normalization_1/truediv;sequential/normalization_1/Maximum f4 [1, 9]
000000 36 7a 61 3d fb 76 01 40 33 2e 06 40 00 00 00 40
       0.05504819 2.022887 2.0965698 2.0
000010 90 84 41 40 60 3c 33 40 60 3c 33 40 79 d3 92 40
       3.023716 2.80056 2.80056 4.5883145
000020 80 96 18 4b
       1e+07

sequential/dense/BiasAdd/ReadVariableOp f4 [64]
000000 7c 46 02 3e c7 52 91 3d dc 9f a7 3d 44 4d ce 3d
       0.127222 0.07095867 0.08184788 0.10073331
000010 c2 f1 02 be 5e 6e 36 3c 50 6a 33 bb b2 28 86 3b
       -0.12787536 0.011134712 -0.00273766 0.0040942067
000020 fc e8 50 3d 62 18 96 3d 73 06 ee 3d bb 16 8a 3d
       0.05100344 0.073288694 0.11622324 0.06742617
000030 af 12 cd 3d c9 48 c8 bc 7a 8f e1 bd 48 c6 86 3c
       0.10013329 -0.02444877 -0.11013694 0.01645197
000040 37 52 2d 3c 7f 0e 9e 3d 9e fe 12 3e a8 ed 4e 3d
       0.010578684 0.07717609 0.14354941 0.050519615
000050 91 97 dd 3d ac 9a f5 bd 43 44 89 3c 09 d8 a3 bd
       0.108199246 -0.11992392 0.016756183 -0.0800019
000060 f1 dc e2 3c a6 ca f7 3d 54 b9 f3 bc 29 e3 1f bd
       0.027693244 0.12099199 -0.029751457 -0.039034996
000070 47 68 a9 3d a7 1f 19 3d 7c 02 72 bd 4c 9b 3f 3d
       0.082718424 0.0373837 -0.0590844 0.046778962
000080 72 44 01 3e 4c e8 80 3c ba cb 1b be ec b6 73 3c
       0.12623766 0.015735768 -0.15214434 0.014875155
000090 7c d5 34 3d a7 01 0c 3d 06 1a c8 3d 60 e2 c0 3c
       0.044148907 0.034181263 0.097705886 0.023545444
0000a0 c2 01 bc 3d 56 59 15 3d 9f f4 b3 3c 52 12 8e 3c
       0.09180023 0.03646215 0.02196723 0.01734272
0000b0 45 76 c6 bd 9c 6a de 3d 86 a8 03 3d 41 41 4b 3d
       -0.09690527 0.10860178 0.03214314 0.049622778
0000c0 e8 ac 99 3d c0 4d f6 3c 7b fa f0 3d a2 82 88 3d
       0.075036824 0.030066371 0.11766525 0.06665541
0000d0 4d c6 ea 3d 75 72 fd 3d e8 53 f3 bb de 08 ee 3c
       0.11463604 0.123753466 -0.007425774 0.029056963
0000e0 1c 40 80 3d 0e 90 8f 3d 66 63 06 3d 91 41 5f 3d
       0.06262228 0.07009898 0.032809637 0.05450589
0000f0 33 4b 9c 3d fd 49 f3 bc 7f b4 c0 3d f0 8c f9 3c
       0.076315306 -0.029698366 0.09409427 0.030462712

sequential/dense_1/BiasAdd/ReadVariableOp f4 [64]
000000 12 7e 2b bc 20 3a 0a 3d e4 da 94 3d e6 91 0d bd
       -0.010467069 0.03374684 0.072683126 -0.034562968
000010 34 42 74 bc 55 ef 0e bb 7d 40 43 bc 21 f3 91 3d
       -0.014908362 -0.0021810133 -0.011917231 0.07126451
000020 bc 5c 9b 3d d8 1d 8a 3d 94 00 72 bc 9c 8e 92 3d
       0.07586047 0.067439735 -0.014770646 0.07156107
000030 ac 54 90 3d ef 5c ac bc 6d 45 74 bb 29 6c 8a 3d
       0.070474 -0.021040408 -0.0037272826 0.06758911
000040 7f 0d 9f 3d 70 ae 22 3e c0 89 9c 3d ce 24 16 bd
       0.07766246 0.15886855 0.07643461 -0.036656193
000050 33 16 62 3d d6 2b 36 3d 10 a7 ef 3d 5e 20 94 3d
       0.055196952 0.0444754 0.117017865 0.07232736
000060 0e 40 35 bd 0b cb 8e 3d f4 ec f9 3b 9b e7 86 3d
       -0.04425054 0.06972321 0.007627124 0.06587144
000070 f8 f7 96 3d 41 59 0c 3c 5f 15 9d 3d 0c 09 fc bc
       0.07371515 0.008566202 0.07670092 -0.030766033
000080 25 07 2b bd eb f6 20 bd 02 a6 91 3d b3 1a f2 bc
       -0.04175486 -0.03929798 0.071117416 -0.029553747
000090 92 f3 e9 bb 82 da 9b 3d f9 6e 41 3d 8f c5 9c 3d
       -0.0071396315 0.076100364 0.047224972 0.07654869
0000a0 79 02 91 3d 9e 66 a6 3d 70 32 6e bd 86 9d f1 bc
       0.0708055 0.081250414 -0.05815357 -0.029494058
0000b0 fc 62 f8 bc c0 a4 90 3d 91 40 9d 3d 6b 5a 96 3d
       -0.030320637 0.070626736 0.07678331 0.073414646
0000c0 37 b7 0a bc c7 a3 9a 3d ef ec d8 bb 18 cb 95 3d
       -0.008466533 0.07550769 -0.0066200416 0.07314128
0000d0 8a 49 2b bd 92 a8 9f 3d 27 63 95 3d bd cd 89 3d
       -0.04181818 0.07795824 0.072943024 0.067286946
0000e0 38 74 ba 3c b8 aa 8a 3d 2e 3c 95 3d b6 fa ca bc
       0.022760496 0.06770843 0.07286869 -0.024777751
0000f0 1c ed a2 3d 1d 6c a4 3d d0 38 67 3e c6 0e a3 3d
       0.07955381 0.080284335 0.22580266 0.07961802

Const f4 [1, 9]
000000 00 00 1e 42 33 33 13 3f 67 66 26 3f 00 00 00 3f
       39.5 0.575 0.65000004 0.5
000010 00 00 00 3e 9a 99 19 3e 9a 99 19 3e cd cc 4c 3d
       0.125 0.15 0.15 0.05
000020 00 00 00 00
       0.0

sequential/dense/MatMul f4 [64, 9]
000000 84 7b 23 bc f0 5b 81 3e 0c 5a 85 be 9b 67 f5 3d
       -0.009978179 0.25265455 -0.26045263 0.11982652
000010 25 72 f1 bd 33 b4 2c bd b6 1d 40 be 71 ef c1 be
       -0.117893495 -0.04216404 -0.18761334 -0.37877992
000020 aa 0d 0b be c7 f4 02 be bc 2f 35 be 7c 56 47 3e
       -0.13579431 -0.12788688 -0.1769399 0.19466585
000030 82 88 04 be a0 5a 07 bd ef 6d 23 3d 2a 5c 87 be
       -0.12942699 -0.03304541 0.039899763 -0.26437503
000040 5a 5f 1c be f4 ed 36 be e7 2b b9 bd 14 b0 d4 b8
       -0.15270749 -0.1786421 -0.09041577 -0.00010141745
000050 d1 4d 5e be be fb 81 bd 4e 18 21 3e 50 00 a7 be
       -0.21709372 -0.06346844 0.15731928 -0.32617426
000060 d6 32 84 be 98 b4 ba bd 66 26 15 be 90 dd a7 be
       -0.25820035 -0.09116477 -0.14565429 -0.32786226
000070 35 3f 22 be 16 bf 7d 3e 1e c3 98 bd e3 50 2d 3e
       -0.15844424 0.24779925 -0.07459091 0.16925387
000080 32 ae a5 bd b9 f3 2f bc fc f3 b8 be 98 a4 6b be
       -0.08089866 -0.01073926 -0.36123645 -0.23012006
000090 d7 f5 c0 be e1 55 9e 3e c5 d8 f8 3b d1 da a1 bc
       -0.3768756 0.30924895 0.0075942003 -0.01975766
0000a0 6d b6 9b 3e aa 6c ac 3e 39 5e 4c 3e b2 14 90 bd
       0.30412617 0.33676654 0.19957818 -0.07035197
0000b0 a0 9b 73 bc 43 e9 c1 3e 08 c8 74 bd c4 61 89 be
       -0.014868647 0.37873277 -0.059761077 -0.26832402
0000c0 30 e0 8a bd f8 11 25 3d 8e 6f 81 be 0c 11 72 3e
       -0.067810416 0.04030034 -0.25280422 0.23639315
0000d0 ab a0 4b 3e 6c 07 ed 3d 81 46 05 3e 2d 45 0e bd
       0.19885509 0.11573681 0.13015176 -0.03473394
0000e0 2a 45 76 3e 30 18 7a be a6 21 3a 3e 92 c5 2a 3e
       0.24049821 -0.2442329 0.18176898 0.1667693
0000f0 40 50 ab bd 01 07 91 bc e4 c1 7d be 5a 88 c7 be
       -0.08364916 -0.017703535 -0.24780995 -0.38971215
000100 94 fb fb 3d 0a c6 c4 3e 1f c3 85 be 75 44 3d be
       0.12303844 0.38432342 -0.26125428 -0.18483146
000110 70 66 12 be de 96 f8 bd 03 b3 e3 bd 70 99 e6 bc
       -0.1429689 -0.12138151 -0.11118128 -0.028149337
000120 ce dc 6d be ba 40 49 bd 83 4b 93 be 84 28 11 3e
       -0.23228762 -0.049133994 -0.28768548 0.14175612
000130 7e ac 8c be 4b 1e 67 be 0d b0 30 bd b7 d8 87 3d
       -0.2747535 -0.2257015 -0.043136645 0.06633132
000140 0b d0 65 be 60 ef ae be 35 d1 02 be e7 18 b0 3e
       -0.22442643 -0.34167004 -0.12775119 0.34394
000150 c1 46 18 be 2d 92 8a bd db 1c ef bd 02 5b 8e bd
       -0.1487074 -0.06766162 -0.116754256 -0.06950952
000160 54 c6 70 be 30 20 f3 3c 87 cd 4c bd 04 74 2e be
       -0.23513156 0.029678434 -0.050000694 -0.17036444
000170 7c 13 91 be 6c ae 88 be 8d 44 51 3e d6 a1 50 3e
       -0.28335178 -0.26695573 0.20436306 0.20374236
000180 62 4d c0 be 06 08 bf be b0 67 70 bd c0 fc 58 be
       -0.37559038 -0.3731081 -0.058692634 -0.21190166
000190 b9 1a 68 be 94 f7 16 3e 7f 71 88 be 81 1f 63 bc
       -0.22666444 0.14742881 -0.2664909 -0.013862492
0001a0 0b dc 1c 3d 1c b8 0f 3e 07 cf fc bb c0 89 a0 bb
       0.038295787 0.14035076 -0.0077151093 -0.0048992336
0001b0 36 dd 50 be 32 d0 da 3e 64 e2 5c 3e 3b 39 7c be
       -0.20396885 0.42736965 0.21570736 -0.24631207
0001c0 d2 8c b0 3d 64 57 13 3e 55 88 7d be a2 55 8b be
       0.08620609 0.14388806 -0.24759038 -0.2721377
0001d0 10 7a d5 3c 45 60 3e 3e 44 15 83 be 3d 7c 6f 3e
       0.02605918 0.18591411 -0.25602162 0.23387237
0001e0 30 b8 2a 3d b5 fe 78 3e ec 58 18 3e c3 74 78 3e
       0.04167956 0.24315913 0.14877671 0.24263291
0001f0 25 44 12 3e 30 57 0f 3e 4f ad 90 3e 87 9d b1 bd
       0.14283808 0.13998103 0.28257224 -0.08672624
000200 f1 4b 38 bd ae 0a bb 3e 52 c0 87 3e 64 e9 b9 3d
       -0.0449943 0.36531585 0.26513916 0.09077719
000210 11 92 40 3e 32 2d 2f 3e a1 c2 76 be 95 f1 e5 be
       0.1880572 0.17107084 -0.24097683 -0.44910875
000220 28 90 00 3c 28 1d 9e 3e 14 6b 22 be a6 91 2b 3d
       0.0078468695 0.3088162 -0.1586116 0.041886948
000230 69 63 c7 bd 89 cf 43 be df a3 c9 bd a8 1b 86 bd
       -0.09735758 -0.19122137 -0.09845709 -0.06548244
000240 bd c0 9b bc e7 a2 c7 3e ef bb f2 bc d4 cb 82 3d
       -0.019012803 0.38991472 -0.02963063 0.063865334
000250 42 6e 03 3b e6 80 89 3e fc e6 3c 3d fa 80 8b be
       0.0020054732 0.26856154 0.04611872 -0.2724684
000260 6f 09 82 3e 1b 1c dd 3e 96 93 48 be a4 de dc be
       0.25397822 0.43185505 -0.1958755 -0.4313861
000270 6e cd 64 3e c8 e4 60 3e 89 6c cb 3d 9b a4 3e 3e
       0.2234399 0.21962273 0.09932811 0.1861748
000280 80 3b 3c be 67 a9 00 be be 60 32 3e 8d 44 e4 3e
       -0.18382072 -0.12564622 0.17419717 0.4458355
000290 e2 8a 9c 3e 05 db e7 3d 2e 5c f7 3d 02 5c b5 be
       0.3057471 0.113210715 0.12078129 -0.3542176
0002a0 a0 6d 29 3e b7 05 bf be 94 ee 8d 3d 1c 8b 7b bd
       0.16545725 -0.37309048 0.06930271 -0.061411962
0002b0 66 aa 7b 3e e8 ab 47 3e 1c 11 6e 3e b1 82 2b 3e
       0.2457672 0.19499171 0.23248714 0.16749074
0002c0 21 43 93 be 10 d3 9b be 8b 6a 71 3e 56 f1 8d be
       -0.28762153 -0.30434465 0.23575799 -0.27723187
0002d0 75 fc f8 3d 0e 3f 04 3f 3c d1 b0 3e 60 21 6a bb
       0.12157527 0.51658714 0.34534633 -0.003572546
0002e0 23 c1 5a 3e e1 2e c3 bd 23 9d a3 be c4 49 89 be
       0.21362738 -0.09530426 -0.31955823 -0.2681409
0002f0 94 d3 8f be c0 24 3b bd 48 cd 25 be 78 c2 9c 3b
       -0.2809111 -0.045689344 -0.1619159 0.0047839247
000300 83 8d 37 be 37 8e 24 3e 19 77 30 be 1c 42 cb bd
       -0.17925076 0.16069876 -0.17232932 -0.09924719
000310 5c bd 89 3d 68 a8 24 3d 51 12 4a be 8b d4 ae be
       0.067255706 0.040199667 -0.1973355 -0.34146532
000320 1e 09 97 3d 80 6f d1 3b f1 24 10 3e ca 7b 83 3d
       0.07374786 0.0063914657 0.14076592 0.06420095
000330 71 1b d7 3d d6 bf 24 be f4 87 89 be 6b 0c 96 be
       0.10503281 -0.16088805 -0.26861537 -0.2930635
000340 34 90 1e 3e 09 2f a7 3d 21 b4 74 3e 82 72 b0 bd
       0.15484697 0.08163268 0.23896839 -0.08615591
000350 fd 88 41 be e4 9a 4a 3e 2b 08 2e bd 32 64 17 3e
       -0.18899913 0.19785649 -0.04248826 0.14784315
000360 c8 de cc 3e 11 c8 03 3e 67 4f 64 bd 2c 5f 81 be
       0.4001372 0.12869288 -0.055739786 -0.25267923
000370 2a 0e 7d bd 51 41 c5 bc 9b 59 33 be be 17 55 3d
       -0.061781086 -0.024078997 -0.1751465 0.052024595
000380 c6 62 a4 bd 41 91 65 3d 44 af 95 be 89 e5 2f be
       -0.08026652 0.056046728 -0.2923528 -0.17177404
000390 4b 8d 70 3e 21 e2 a7 be d8 aa 58 bc d9 eb 8b 3d
       0.23491399 -0.3278971 -0.013224326 0.06832094
0003a0 f6 98 aa 3d d0 e8 7c 3d a9 81 f9 3e 00 15 61 bd
       0.08329956 0.061745465 0.48731735 -0.054951668
0003b0 6e 52 d9 be 70 d8 c3 3d f3 62 9d 3d 98 ba 3b 3e
       -0.424457 0.095627666 0.07684889 0.18332899
0003c0 7c d6 00 be 18 61 59 3e 70 6b 93 bc c6 53 dd bd
       -0.1258182 0.21228445 -0.017995566 -0.10806994
0003d0 fe c9 b8 be 35 be 64 3e 0c 15 45 3d 11 64 03 3e
       -0.36091608 0.22338183 0.048115775 0.12831141
0003e0 92 f3 f7 3d 5f 02 4c 3e 08 e4 fe 3d 70 11 06 3d
       0.12107004 0.1992278 0.12445837 0.032731473
0003f0 42 31 87 be 0f 75 27 3e f3 80 e5 3e d7 42 4b 3e
       -0.26404768 0.16353248 0.44824943 0.19849716

sequential/dense_1/MatMul f4 [64, 64]
000000 b0 88 5a be 43 2d a6 bd 6e 11 a9 3c 02 52 ce bd
       -0.21341205 -0.08114102 0.020638194 -0.100742355
000010 9c ea ac bd 79 69 11 bd 13 68 15 3e 0f 29 68 3e
       -0.08443186 -0.035500977 0.14590482 0.22671913
000020 58 aa fe 3d 3a 8d 6a 3e e6 04 d8 3d f7 73 26 bd
       0.12434834 0.22905436 0.10547809 -0.040637936
000030 03 7d 56 be a1 84 f0 3d a7 91 bb bc 05 e5 72 3e
       -0.20946126 0.11744047 -0.0228966 0.23720177
000040 68 bc 8f 3d ee 53 2b be 52 d1 03 be d4 64 9f bd
       0.070183575 -0.16731235 -0.12872818 -0.07782903
000050 1b f3 be 3d 7f a9 fb bb 3a 8f 1c 3c 41 4a 50 be
       0.093237124 -0.0076801176 0.009555632 -0.20340826
000060 2c 32 60 be 25 dc e2 3d 4b ad 1a 3e 18 7e 23 3e
       -0.21894139 0.110771455 0.15105169 0.1596607
000070 2c c9 e0 3d 90 3d ce 3c a3 88 0a be 4b bf 06 3e
       0.109758705 0.02517584 -0.13528685 0.1315891
000080 20 da bc bd 61 84 2d bd 24 32 5e be a8 d1 df bd
       -0.092212915 -0.042362574 -0.21698815 -0.10928661
000090 6c 06 1a be b6 e6 13 be fa 94 52 bc ff 9d 3d 3e
       -0.15041512 -0.14443478 -0.012852902 0.18517302
0000a0 01 2e 08 3c f4 82 88 3b b3 44 12 3e aa d0 02 bd
       0.008311749 0.0041660015 0.14284019 -0.03193728
0000b0 16 45 5a bc b8 e2 89 bd a9 19 4a 3e 9e 16 84 bb
       -0.013322135 -0.06732696 0.19736351 -0.0040310165
0000c0 f9 2b aa bc 78 7f 0e 3d 8e 5a d7 3d 5d 43 7a be
       -0.02077292 0.034789532 0.10515319 -0.2443976
0000d0 a9 c6 5d 3e df 5b 40 3e bd 1b ee 3d f4 9a 68 be
       0.21657814 0.18785046 0.116263844 -0.2271536
0000e0 1e 1d 0d be a6 b7 0c be 0b 9d 45 be 51 62 77 3c
       -0.13780639 -0.13741931 -0.19298188 0.015099124
0000f0 14 c5 19 bc c8 fc 93 bd 64 88 35 be fd 11 11 be
       -0.009385366 -0.072259486 -0.1772781 -0.14167018
000100 1a 02 d6 bd 75 68 df 3d 05 49 66 be 2f d1 74 be
       -0.104496196 0.109085955 -0.22488792 -0.23907922
000110 e5 1e 73 3e 87 01 e7 bd ca de 03 3d f1 51 b9 be
       0.23742254 -0.11279588 0.03219489 -0.3619533
000120 58 dd fa bd 78 9b 5c 3c 61 87 3e 3e 47 6c 18 be
       -0.12249249 0.013464801 0.1860633 -0.14885055
000130 9f 28 5f 3e ea 8c 04 3e b5 6b 45 be 4b 9a 82 3c
       0.2179284 0.1294438 -0.19279368 0.015942713
000140 71 eb 44 3e e3 2f 8c be 68 6e a8 bc ff e3 7c 3d
       0.19230439 -0.27380285 -0.020560458 0.06174087
000150 e7 17 ab 3e 97 17 b8 3d 01 a6 4c 3c 28 71 6f 3d
       0.33416674 0.089888744 0.01249075 0.058457524
000160 5c 27 9f 3d a1 7e 17 bd e4 c9 93 bd c5 c1 ba 3d
       0.07771179 -0.036985997 -0.07216242 0.0911899
000170 c7 9e 88 be c4 70 07 3e 83 0e 70 3e 28 b1 31 be
       -0.26683637 0.1322661 0.23443036 -0.17352736
000180 89 71 29 be 38 39 16 be 95 a8 12 3e d3 07 7e be
       -0.16547216 -0.14670265 0.14322121 -0.24807672
000190 50 b4 2e 3c 81 f2 4c be 43 1a 1f 3e bb 20 91 3d
       0.010663107 -0.20014383 0.15537362 0.07086321
0001a0 55 02 89 3e d2 55 96 bd 88 24 85 bd 87 d7 55 be
       0.26759592 -0.07340588 -0.065011084 -0.20882998
0001b0 f4 1c 22 be c4 07 fa 3d c3 61 88 bc 73 22 da bd
       -0.15831357 0.122085124 -0.016648179 -0.10651102
0001c0 b6 4a 43 3e 31 77 1d be 9b c8 30 3d 71 e5 1d 3b
       0.19071469 -0.15377499 0.043160062 0.0024093057
0001d0 93 a4 a7 be 32 56 81 bb bb 3d 54 bd 1f 02 3d be
       -0.32742748 -0.003947043 -0.051816683 -0.1845784
0001e0 c2 3f da 3c cf b2 e5 3c e7 68 06 3e 76 e9 f8 bc
       0.02664173 0.028039364 0.13125955 -0.03038476
0001f0 04 be 2f be a9 e7 2b be ce cf 87 be 37 f5 d8 39
       -0.17162329 -0.1678759 -0.2652573 0.0004138143
000200 32 4d 43 3d 74 0c 38 bc f8 18 8a 3e 43 ea 82 3e
       0.04768104 -0.011233438 0.26972175 0.25569353
000210 3d ab a5 be c9 b8 08 be b9 81 52 3d d7 1f b2 3e
       -0.32357207 -0.1335174 0.051393244 0.34789917
000220 06 7b 5b be 38 9a 7b 3b b9 fa 48 3d bd 65 85 3e
       -0.21433648 0.0038391482 0.049067233 0.26054183
000230 04 2b 3d bd cb 3c 88 3e cf 63 a9 3e 0c c4 dc 3e
       -0.0461836 0.2660888 0.3308396 0.43118322
000240 e6 9e fc bd 15 39 b9 3b 3c d4 1d 3e 38 8f 98 3e
       -0.12334995 0.0056525567 0.15412992 0.29796767
000250 f3 68 b1 3d 22 4e 9f 3d 82 ef f9 bb b3 13 4d 3e
       0.086625956 0.077785745 -0.0076274285 0.20027046
000260 8e 8c c3 bd 47 92 06 bc 6e 55 50 3e f9 64 cc 3b
       -0.09548293 -0.008213586 0.20345089 0.006237623
000270 98 e4 11 3e 5b f6 aa 3d 70 d4 ec 3d 42 98 3f 3e
       0.14247358 0.0834777 0.11563957 0.18710425
000280 f9 0e 28 3e c3 b8 93 3e 6a d9 92 bd b9 cb 4a 3e
       0.16411962 0.288519 -0.07170375 0.19804277
000290 e6 8a 20 bd 38 6b ae 3d d9 0c 8b bb 22 af 25 3e
       -0.039194964 0.08516544 -0.004243475 0.16180089
0002a0 fe ec 63 3e a8 0e 38 3e ae 3f 9a bc 11 41 a7 3e
       0.22258374 0.17974341 -0.018829193 0.3266683
0002b0 21 9b d9 3d 29 9c ad 3d 75 b4 9b bc 8a 11 3c 3e
       0.106252916 0.08477051 -0.019006947 0.18366066
0002c0 d2 8c 08 ba c9 2b dd 3d bb 1a 31 3d 6d 80 d8 3d
       -0.0005208972 0.10799367 0.043238383 0.1057137
0002d0 6e f9 57 3b 01 dd 13 3d f7 32 9e 3e 48 04 5b 3e
       0.0032955068 0.036099438 0.30898258 0.21388352
0002e0 b9 0f 92 3e 17 4d 98 3e 2b af ae 3e ce d0 90 bd
       0.2852762 0.29746315 0.34118018 -0.07071076
0002f0 f4 12 1d 3d 54 11 81 3e 43 97 72 3d b9 3d 76 3e
       0.038348153 0.25208533 0.059226286 0.24046983
000300 d0 28 f9 3c c2 36 34 be 33 cd f7 bd 29 d2 32 be
       0.030414969 -0.17599013 -0.120996855 -0.17462982
000310 c0 8c 6e bd 09 6e 15 be 72 d9 3e be 52 1e ea 3d
       -0.0582397 -0.14592756 -0.18637636 0.114315644
000320 0b 99 63 be eb 30 2e 3e ab 0e fb bd 19 97 30 be
       -0.2222635 0.17010848 -0.12258657 -0.17245139
000330 24 ef 31 3d c8 29 8f 3d 36 e1 3a be d2 18 07 be
       0.043440953 0.06990391 -0.18249974 -0.13193062
000340 51 13 68 be 64 7f 76 bd dd 12 ec 3d 40 59 08 be
       -0.22663619 -0.060180083 0.115270354 -0.13315296
000350 7b d8 da bd 9e 41 5c 3b 58 1d 4a be c2 87 46 3c
       -0.106858216 0.0033608447 -0.19737756 0.012117328
000360 17 f7 15 3d ee 9e a9 3d 50 45 41 3c ce 94 05 3e
       0.036612596 0.082822666 0.011796311 0.13045046
000370 68 f1 81 bd a6 35 64 be f0 c1 8c bd a3 57 6c be
       -0.06344873 -0.2228609 -0.06872928 -0.23080306
000380 7e 86 3a bd db 6a 9a 3d 61 7f e4 3d 30 ae c5 3c
       -0.045538418 0.07539912 0.11157108 0.02413091
000390 2d 7d c2 3d 0a e5 5d 3b 65 f6 fb 3d a8 67 2e be
       0.09496532 0.0033858442 0.123028554 -0.17031729
0003a0 77 29 2a 3e 4a e2 4f 3d 99 09 1d 3c 59 ad b0 3d
       0.1661738 0.050752915 0.009584808 0.086268134
0003b0 9c fd 17 3d 4d 5a fc bd cb 10 30 3e 09 35 6e be
       0.037107095 -0.12321911 0.17193906 -0.23262419
0003c0 77 be 10 3e 8c 59 14 3d bf a9 0e bd 74 63 46 be
       0.14135157 0.03621821 -0.03482985 -0.19373876
0003d0 c7 0c 25 be 5c ef d6 bd 53 2b d1 bd dc 05 cf bd
       -0.16118155 -0.10494873 -0.102133416 -0.101085395
0003e0 ad 12 3e be 02 ea c8 bd 0a 89 7b be 8a 71 06 3e
       -0.18561812 -0.098102584 -0.24563995 0.13129249
0003f0 33 47 20 be bf 0a 9e 3d 0c b7 a1 bd 52 fd 08 3e
       -0.1565216 0.077168934 -0.078962415 0.13377884

sequential/dense_2/MatMul f4 [1, 64]
000000 bd 3e a3 be 15 1f 93 be ca a9 49 3e 60 2f 80 be
       -0.31883803 -0.2873465 0.19693676 -0.25036144
000010 41 a1 8f be 31 4b 77 be 1a 79 8b be 11 18 cf 3e
       -0.28052714 -0.24149777 -0.2724083 0.4044805
000020 a7 1e 36 3e 4f e9 9a 3e e5 15 9e bd 8e 85 48 3e
       0.1778513 0.30256125 -0.0771902 0.19582197
000030 1f 3e bf 3e 65 c4 64 be d8 44 66 be b8 99 c9 3e
       0.37352082 -0.22340544 -0.224872 0.3937509
000040 5b 70 3f 3e 7c b9 97 be 86 89 1e 3e a5 7e ef bd
       0.18695204 -0.296337 0.15482149 -0.116940774
000050 ca 82 9f be aa b4 72 be 50 83 c6 be e4 36 80 3e
       -0.31154472 -0.2370173 -0.38772058 0.25041878
000060 49 c5 7d bd 71 17 d8 be 11 73 98 be a5 b2 a0 3e
       -0.061955724 -0.42205384 -0.2977529 0.31386295
000070 b3 59 bb 3e 7b dd b8 be 17 33 65 3e e1 b7 86 be
       0.36591873 -0.36106476 0.2238277 -0.26312163
000080 91 e1 4b be 64 8e 70 be 74 8d c7 3e 82 9a 76 be
       -0.19910266 -0.23491818 0.38975108 -0.24082378
000090 4a e3 a5 be 7a ae b5 be 14 b7 30 be b2 27 0e 3e
       -0.3239997 -0.35484678 -0.17257339 0.1388233
0000a0 ee 72 a0 3e e2 3b b8 3e 13 78 d6 bd 5b 09 24 be
       0.31337684 0.35983187 -0.10472121 -0.16019194
0000b0 ab fb 4a be 01 98 cc 3e 4c 86 2c 3e cf c2 3c 3e
       -0.19822566 0.3995972 0.16848105 0.18433689
0000c0 e2 ec 5a be ca de ba 3e bc e3 84 be 73 5e a8 3e
       -0.21379426 0.364981 -0.25954998 0.3288456
0000d0 10 c4 60 be b8 aa c0 3e f3 d1 3a 3e 31 b7 89 3e
       -0.21949792 0.37630248 0.18244152 0.26897576
0000e0 d3 63 7a be a8 ae 9e 3e 0d 33 77 3e 22 a8 90 be
       -0.24452142 0.30992627 0.24140568 -0.28253275
0000f0 4b 41 2e 3e 2b cf f0 3d 8e 40 e3 be 33 83 9a be
       0.17017095 0.11758264 -0.4438519 -0.30178222
