app/src/main/ml/dnn3_model.tflite (tflite, 22016 bytes, 7 tensors)

sequential_2/normalization_2/truediv;sequential_2/normalization_2/Maximum f4 [1, 9]
0	0x3d53510c	0.051590964
1	0x4000a514	2.0100756
2	0x400432a5	2.065591
3	0x40000000	2.0
4	0x40418490	3.023716
5	0x40333c60	2.80056
6	0x40333c60	2.80056
7	0x4b189680	1e+07
8	0x40ccf6cb	6.405126

sequential_2/dense_7/BiasAdd/ReadVariableOp f4 [64]
0	0x3d8c7114	0.068575054
1	0x3d06c3dd	0.032901634
2	0xbd00b633	-0.03142376
3	0x3d9c89f4	0.076435
4	0x3d98f078	0.07467741
5	0x3d8476a1	0.06467939
6	0xbcfea17b	-0.03108286
7	0x3d9fb038	0.07797283
8	0x3dc49178	0.095980585
9	0xbcffe2dc	-0.031236105
10	0x3d900936	0.07033007
11	0x3d8d4f7e	0.068999276
12	0x3d8f74b6	0.07004683
13	0x3df244e0	0.11829543
14	0x3d8c04a9	0.06836826
15	0x3d46bedd	0.048521865
16	0x3d91dac3	0.071218036
17	0xbcaebbaa	-0.02132972
18	0xbce68220	-0.02813822
19	0x3e1562d1	0.14588477
20	0xbcfe5aca	-0.031049151
21	0x3d9602dc	0.07324764
22	0x3da088b0	0.07838571
23	0x3d8f0d08	0.069849074
24	0x3d8a40a3	0.0675061
25	0xbd2c4a9c	-0.04206334
26	0x3d828896	0.06373708
27	0x3dab7022	0.08370997
28	0xbc9b93b2	-0.018991325
29	0x3ca7dbe5	0.020490596
30	0x3c07c4ca	0.008286664
31	0x3d9c3712	0.07627691
32	0xbd02f151	-0.03196842
33	0x3dac9cb2	0.08428325
34	0xbcdbb6e7	-0.026820613
35	0xbc9f3853	-0.019436037
36	0x3d89d674	0.06730357
37	0x3d8e2a9d	0.069417216
38	0x3ca0ba0b	0.019619962
39	0x00000000	0.0
40	0x3d8fc190	0.07019341
41	0x00000000	0.0
42	0x3d94eca8	0.07271701
43	0xbc9a8d81	-0.018866302
44	0x3d95258f	0.07282554
45	0x3d860404	0.06543735
46	0x3d90da18	0.07072848
47	0x3db1d51b	0.08683225
48	0x3d8d8aef	0.06911265
49	0xbd23e2c8	-0.040011197
50	0x3ca829fb	0.02052783
51	0x3d976c85	0.07393745
52	0xbcba57e4	-0.022746988
53	0x3b317fb9	0.0027084185
54	0x3d9ad5bb	0.07560297
55	0x3d88590d	0.0665761
56	0x3d322388	0.043490916
57	0x3d71debb	0.059050303
58	0x3e4f33ea	0.20234647
59	0x3d9f0590	0.07764733
60	0xbd12f779	-0.03588054
61	0xbd0fffe9	-0.035156164
62	0xbcb59863	-0.02216739
63	0x3dd3be12	0.103389874

sequential_2/dense_6/BiasAdd/ReadVariableOp f4 [64]
0	0x3d744bc4	0.05964257
1	0x3dad86cf	0.08472978
2	0x3d75c2b9	0.060000155
3	0x3cd67a57	0.026181383
4	0x3d6d04b6	0.05786582
5	0xbcc9c9ee	-0.02463242
6	0xbc09e59c	-0.00841656
7	0x3dabc594	0.083872944
8	0x3dd85dd5	0.10564772
9	0x3c9f4c9f	0.019445715
10	0x3d5b0aae	0.05347698
11	0x3d8d7c7b	0.069085084
12	0x3c6a010b	0.014282475
13	0x3dd484fd	0.10376928
14	0x3cfd11fa	0.030892361
15	0x3e02f663	0.12789302
16	0x3e3ccb54	0.18436939
17	0x3def0ce1	0.11672378
18	0x3e0d36ad	0.13790388
19	0x3c3feadb	0.011713709
20	0xbd8aec04	-0.06783298
21	0x3ddbb9a0	0.107287645
22	0x3d31f16b	0.043443125
23	0x3df5fe70	0.12011421
24	0xbcd65e98	-0.026168153
25	0xbda1ba11	-0.078968175
26	0x3d8cdfcc	0.06878623
27	0xbde71468	-0.11283189
28	0x3df04189	0.1173125
29	0xbcd0bd46	-0.025480878
30	0xbcebb793	-0.028774058
31	0x3cc99dc5	0.024611363
32	0x3dc55f71	0.09637345
33	0x3d31f6ed	0.043448377
34	0xbcb8f75c	-0.022578888
35	0x3d8845e4	0.066539556
36	0x3d67dbf3	0.056606244
37	0x3d4320db	0.047638755
38	0x3c086741	0.008325399
39	0x3da82ab3	0.08211269
40	0x3d04bc5a	0.03240619
41	0x3d9da661	0.0769775
42	0x3d3156d4	0.043295696
43	0x3dc991da	0.09842272
44	0xbda3e937	-0.080034666
45	0xbd855d28	-0.06511909
46	0x3d42edfb	0.047590237
47	0x3de2386b	0.11045917
48	0x3dec5792	0.1154014
49	0x3de24ecc	0.110501856
50	0xbd746a17	-0.059671488
51	0x3c94d0ef	0.018166034
52	0x3e280e1a	0.1641163
53	0x3dbfbb4b	0.09361895
54	0x3e0da5bd	0.13832755
55	0x3d64ac5a	0.05582843
56	0x3de6f578	0.11277288
57	0x3d941c94	0.07232013
58	0x3dfe079f	0.12403797
59	0x3d9194cf	0.07108461
60	0x3c1db7be	0.009626327
61	0x3ddc6fd8	0.1076352
62	0x3e0077c9	0.12545694
63	0x3d8f0ebb	0.069852315

Const f4 [1, 9]
0	0x421ccccd	39.2
1	0x3f0ccccd	0.55
2	0x3f200000	0.625
3	0x3f000000	0.5
4	0x3e000000	0.125
5	0x3e19999a	0.15
6	0x3e19999a	0.15
7	0x00000000	0.0
8	0x3ccccccd	0.025

sequential_2/dense_6/MatMul f4 [64, 9]
0	0x3d8c94c1	0.0686431
1	0xbea7a432	-0.3274246
2	0xbdaf8d8a	-0.08571918
3	0xbe40f761	-0.18844368
4	0xbd011d92	-0.03152234
5	0xbe5c82c9	-0.21534266
6	0x3cb05041	0.021522643
7	0x3e2db810	0.16964746
8	0x3e518328	0.20460188
9	0xbef61636	-0.4806382
10	0xbe359d92	-0.1773589
11	0x3e6b1bd3	0.22959833
12	0xbe041ddc	-0.12902015
13	0x3d8f2ca4	0.069909364
14	0xbe1338a6	-0.14377078
15	0xbeb37f6d	-0.35058156
16	0xbe832f4f	-0.2562203
17	0xbdbd9f16	-0.09258859
18	0x3c2c8f68	0.010532238
19	0xbea44a79	-0.32088068
20	0xbea64368	-0.32473302
21	0x3e9a1e87	0.30101416
22	0x3e8099de	0.2511739
23	0xbd3ad8af	-0.0456168
24	0x3e8600fc	0.26172626
25	0x3d4360e8	0.04769984
26	0xbe6a54d3	-0.2288392
27	0x3ea2768a	0.31731063
28	0xbe39d90b	-0.18149202
29	0x3d9e568b	0.077313505
30	0xbee25a07	-0.4420931
31	0xbddfc8dd	-0.109269835
32	0x3e58d038	0.21173179
33	0xbe9bdc87	-0.30441687
34	0x3e24f216	0.16107973
35	0xbdd8771c	-0.10569593
36	0xbe8be2ac	-0.27321374
37	0xbe2ae488	-0.1668874
38	0x3ede76b0	0.43449926
39	0xbea7f9f9	-0.32807902
40	0xbe04f976	-0.12985787
41	0xbd9f2468	-0.07770616
42	0xbeaa213b	-0.33228478
43	0x3e1febd8	0.15617311
44	0x3e7d128d	0.24714108
45	0xbb7f70a4	-0.003897705
46	0xbeadcf59	-0.33947256
47	0xbd4203b2	-0.047366805
48	0x3de629e7	0.11238461
49	0x3e57279e	0.21011207
50	0x3e055108	0.13019192
51	0x3c61e085	0.01378644
52	0x3d38d3a8	0.045123726
53	0x3e239770	0.15975738
54	0xbe12b560	-0.14327002
55	0xbe7d0974	-0.24710637
56	0x3d95dc05	0.07317356
57	0xbe91b1e0	-0.2845602
58	0xbe2c98ac	-0.16855115
59	0x3e02572f	0.1272857
60	0x3d5d1630	0.053976238
61	0x3e2e7aac	0.17038983
62	0xbe2cb5d5	-0.16866238
63	0xbddaac4e	-0.10677396
64	0x3d116707	0.035498645
65	0x3eb6d431	0.35708764
66	0x3e881e0c	0.26585424
67	0x3e7a40bf	0.24438761
68	0xbe7aa303	-0.24476247
69	0x3e5ac00f	0.21362327
70	0x3df24b98	0.118308246
71	0xbe6e5778	-0.23275554
72	0x3e8c84b1	0.27444986
73	0x3e8cadea	0.27476436
74	0xbcd84dc1	-0.026404263
75	0xbe093235	-0.13398059
76	0xbdba761d	-0.091045596
77	0xbda50891	-0.080582745
78	0xbea8562c	-0.32878244
79	0x3e42e5e4	0.19033009
80	0x3e877c7a	0.26462156
81	0xbe7fe490	-0.24989533
82	0x3e25b797	0.16183315
83	0x3e9876ab	0.29778036
84	0x3d792351	0.060824696
85	0xbe4d9367	-0.20075761
86	0x3dafcf95	0.08584515
87	0xbe91430c	-0.28371465
88	0xbe513403	-0.20429997
89	0x3dc37acb	0.09544905
90	0x3e4559d4	0.19272548
91	0x3e8738ed	0.26410618
92	0xbeab94fd	-0.33512107
93	0xbe921068	-0.28528142
94	0xbe7bf8ae	-0.24606583
95	0xbe302cbc	-0.17204565
96	0xbcf1b0df	-0.029503284
97	0x3d39f500	0.045399666
98	0x3e88a4bd	0.26688185
99	0xbdd7acd0	-0.10531008
100	0xbe2200c8	-0.1582061
101	0x3ed24bd8	0.4107349
102	0xbd1feea9	-0.039045963
103	0xbea9274f	-0.33037803
104	0x3e709f72	0.23498324
105	0x3cf2d3b9	0.029641973
106	0xbe0aa8bb	-0.13540928
107	0xbe79af1e	-0.24383208
108	0xbe33a5b6	-0.17543682
109	0xbe2fc89b	-0.17166369
110	0x3cceb1fa	0.02523135
111	0xbdbd7420	-0.09250665
112	0x3eac4d4f	0.33652732
113	0xbe8d1cfe	-0.27561182
114	0x3d512737	0.05106279
115	0x3d94f1f4	0.072727114
116	0xbdb39670	-0.08768928
117	0xbe56a04e	-0.20959589
118	0x3ebb2ec7	0.36559126
119	0x3ea9732d	0.33095685
120	0xbe95d761	-0.29265884
121	0xbde297a9	-0.11064083
122	0x3db2e714	0.08735481
123	0xbdbb590a	-0.09147842
124	0x3da64228	0.08118087
125	0xbe250225	-0.161141
126	0x3e921d59	0.28538015
127	0xbe1e90af	-0.1548488
128	0xbea9a21f	-0.331315
129	0xbd97ea9f	-0.07417797
130	0x3e582dc6	0.21111211
131	0xbcf1e748	-0.029529229
132	0xbe08b342	-0.13349631
133	0x3e82f04d	0.2557396
134	0x3e61058c	0.21974772
135	0xbd563bd1	-0.05230314
136	0x3bf5b073	0.007497841
137	0x3e7ccfa2	0.2468858
138	0x3ea876b2	0.32903057
139	0xbe1876bd	-0.14889045
140	0x3e22f2d2	0.15912941
141	0xbc347c9e	-0.011016039
142	0x3dd764b4	0.105172545
143	0xbea4b540	-0.32169533
144	0xbcba71a7	-0.022759272
145	0x3e859a49	0.26094273
146	0x3c72f782	0.014829518
147	0xbe9beafc	-0.30452716
148	0xbe81f6aa	-0.25383502
149	0xbdeb2310	-0.11481297
150	0xbebb9d81	-0.36643603
151	0xbdbc581a	-0.091964915
152	0xbee4b47b	-0.44668946
153	0xbdfb31ab	-0.12265333
154	0xbe9b1d0d	-0.302956
155	0xbd821895	-0.06352345
156	0x3e9e0dea	0.3086999
157	0x3ce7e97c	0.028309576
158	0xbe683f01	-0.22680284
159	0xbccbd642	-0.02488244
160	0xbca82660	-0.020526111
161	0xbe2648d1	-0.16238715
162	0x3ead8ada	0.33894998
163	0xbe8ff4de	-0.28116506
164	0xbec330fa	-0.38123304
165	0x3ea9a747	0.33135435
166	0x3e83ec31	0.25766137
167	0x3dfd225c	0.12360069
168	0x3e5eae9c	0.21746296
169	0xbe30fa47	-0.17282973
170	0xbe01f327	-0.12690412
171	0xbd60536e	-0.054767065
172	0xbe8bcc22	-0.27304178
173	0xbe6f161e	-0.23348281
174	0xbe27c41e	-0.16383407
175	0x3e502507	0.20326625
176	0xbe7a6ddb	-0.24455969
177	0x3e4a2018	0.19738805
178	0xbdb93644	-0.090435535
179	0x3db03880	0.086045265
180	0xbe41d556	-0.18929037
181	0xbea75821	-0.32684425
182	0x3e8b4f6f	0.2720904
183	0x3dcf72b5	0.101293005
184	0x3e89b3a3	0.26894864
185	0x3d19bcda	0.03753362
186	0x3dff3d65	0.12462882
187	0xbc8e5a50	-0.017377049
188	0x3df59313	0.11990943
189	0x3e3a524f	0.1819546
190	0x3ececa9c	0.40388954
191	0x3e12de8a	0.14342704
192	0x3e09fb53	0.13474779
193	0xbd68bfe2	-0.05682362
194	0xbe216a27	-0.1576315
195	0x3e86565c	0.26237762
196	0xbd6ffc0c	-0.05858998
197	0x3d8c4207	0.06848531
198	0x3e8cd952	0.27509552
199	0xbdd5ba2d	-0.10435901
200	0xbe7b4290	-0.2453711
201	0x3dcca22d	0.0999187
202	0x3e973e27	0.29539606
203	0x3d0aab54	0.033854797
204	0xbe80ae51	-0.25132993
205	0xbc8e97f0	-0.017406434
206	0xbda9e868	-0.08296281
207	0x3d0b1a87	0.033960845
208	0x3eb7954e	0.35856098
209	0xbe45115d	-0.19244905
210	0x3dc60541	0.09668971
211	0xbebcaf7f	-0.36852643
212	0xbe9a7dc7	-0.30174085
213	0x3da1a81f	0.07893395
214	0x3e2a4078	0.16626155
215	0xbeaee4a0	-0.34158802
216	0x3e22d076	0.15899834
217	0x3bf8cfe7	0.0075931433
218	0xbe3e1c02	-0.18565372
219	0x3e74eef3	0.23919277
220	0x3e4e76f0	0.20162559
221	0xbb12bf85	-0.0022391987
222	0x3dc06298	0.09393805
223	0xbe806462	-0.25076586
224	0x3de80d09	0.11330611
225	0xbe557404	-0.20845038
226	0x3e8f58ca	0.27997428
227	0xbdfba8fc	-0.122880906
228	0x3e3ac58e	0.18239424
229	0x3e3e491a	0.18582574
230	0x3ebaa80f	0.36456344
231	0x3e54443f	0.20729159
232	0xbe928dc9	-0.28623798
233	0x3e83a7d8	0.25713992
234	0x3ea39b7a	0.31954557
235	0xbec5a69c	-0.38603675
236	0xbe081f7e	-0.13293263
237	0x3d216328	0.039401203
238	0x3db854a3	0.09000518
239	0x3e05beb5	0.1306103
240	0xbead21ec	-0.33814943
241	0xbe26903b	-0.16265957
242	0xbe3f8b10	-0.18705392
243	0x3d03b46b	0.03215448
244	0xbebfc3c6	-0.3745405
245	0xbd8420ce	-0.064515695
246	0xbeab6fee	-0.33483833
247	0xbe46f633	-0.19429855
248	0x3e7cabd9	0.2467493
249	0xbe72cf75	-0.23711951
250	0x3e1a6688	0.15078175
251	0x3d827612	0.063701764
252	0xbe4e39b7	-0.20139204
253	0x3da3d75e	0.080000624
254	0x3eac69fa	0.33674604
255	0x3e0d61ac	0.1380679

sequential_2/dense_7/MatMul f4 [64, 64]
0	0xbcb7fddf	-0.022459922
1	0x3e9d3510	0.30704546
2	0xbcab5108	-0.020912662
3	0x3b30a743	0.0026955165
4	0x3d890f54	0.06692377
5	0x3db74eca	0.08950575
6	0x3e9a924a	0.30189735
7	0x3e72fe5b	0.23729841
8	0x3e3551ad	0.17706938
9	0xbcfa8bff	-0.030584333
10	0x3e89cc5e	0.26913732
11	0x3d438d07	0.047741916
12	0x3ddd1732	0.1079544
13	0xbd0b1ba0	-0.033961892
14	0x3ea85267	0.32875368
15	0x3e47596b	0.19467704
16	0xbdb464ad	-0.08808265
17	0x3d9545e9	0.07288725
18	0x3e973d46	0.29538935
19	0x3dca313f	0.09872674
20	0x3df592c4	0.11990884
21	0xbcbddb48	-0.02317585
22	0x3e694c3d	0.22782989
23	0x3dbf5543	0.09342434
24	0xbd78cc87	-0.060741927
25	0xbe38e231	-0.18055035
26	0xbd506082	-0.050873287
27	0xbc904b9d	-0.01761418
28	0x3e20306b	0.1564347
29	0x3df42369	0.119208165
30	0x3e63f09f	0.22259758
31	0x3e15ba7e	0.14621922
32	0xbe204052	-0.15649536
33	0xbde42269	-0.11139376
34	0xbc87283b	-0.016498676
35	0x3c9b9999	0.01899414
36	0x3d941bfe	0.072319016
37	0x3e87c59b	0.26517949
38	0x3b951960	0.004550144
39	0x3e09455e	0.13405368
40	0x3e791e81	0.24328043
41	0x3ca15fa1	0.01969892
42	0x3e864248	0.26222444
43	0x3e29fb06	0.16599664
44	0xbcccbd85	-0.024992714
45	0x3e7e5e57	0.24840675
46	0x3dc81421	0.09769464
47	0xbd9cf334	-0.07663575
48	0xbd1c40a9	-0.038147602
49	0x3daf0668	0.08546144
50	0x3e486460	0.1956954
51	0x3e551029	0.20806946
52	0x3d0763fc	0.033054337
53	0xbc3f96b3	-0.011693644
54	0xbdbe94c5	-0.09305719
55	0x3d9ab2a0	0.07553601
56	0xbcd94314	-0.026521243
57	0x3bac687f	0.0052614803
58	0x3e8524dd	0.26004687
59	0xbdd86b70	-0.10567367
60	0x3ea3c706	0.3198778
61	0x3d44a13d	0.04800533
62	0xbde657cc	-0.11247215
63	0x3e8f484d	0.2798485
64	0x3d3c72d5	0.04600795
65	0x3d6ff9fd	0.058588017
66	0xbd5531d0	-0.052049458
67	0x3e04e74a	0.12978855
68	0xbe35384f	-0.17697261
69	0x3e203f02	0.15649036
70	0xbe85a71e	-0.26104063
71	0x3b9cbf8c	0.0047835764
72	0xbe511c26	-0.20420894
73	0x3dc6eb03	0.09712794
74	0x3b89597b	0.004191575
75	0x3e6b71d7	0.22992645
76	0xbe300d17	-0.17192493
77	0xbd562c76	-0.052288495
78	0xbe853c3c	-0.26022518
79	0x3e362b67	0.17789994
80	0xbea9166d	-0.33024922
81	0x3df8c543	0.12147
82	0xbdcf5561	-0.101237066
83	0xbe8b8a8d	-0.27254143
84	0xbd621a41	-0.05520082
85	0xbc9dc21d	-0.0192576
86	0x3e5963e2	0.21229509
87	0x3ce3c8c4	0.027805693
88	0x3dfa98ba	0.122361615
89	0x3d4085f5	0.04700275
90	0x3e7b51fa	0.2454299
91	0xbe8073a9	-0.25088242
92	0x3e224295	0.15845712
93	0xbe1a2b01	-0.15055467
94	0x3e5ff034	0.21868974
95	0xbd47b6e6	-0.04875841
96	0xbddeb4ee	-0.10874353
97	0x3e0b614b	0.13611333
98	0xbeb15a3c	-0.34639156
99	0xbe3435c8	-0.17598641
100	0xbddc45c9	-0.10755498
101	0xbde59051	-0.11209167
102	0xbe649c34	-0.22325212
103	0x3e2f3cb2	0.17112997
104	0x3de013ab	0.10941251
105	0x3e0a8974	0.13528997
106	0x3d288ec9	0.041151796
107	0xbd116d04	-0.035504356
108	0xbdb1b4ff	-0.086771004
109	0xbe5bee4c	-0.21477622
110	0xbe49859f	-0.19679879
111	0xbe6c3e2e	-0.23070595
112	0xbe5243a0	-0.2053361
113	0x3da9f3b7	0.08298438
114	0xbe46a333	-0.19398193
115	0x3e6cf680	0.23140907
116	0x3decd763	0.11564519
117	0x3e5cb265	0.21552427
118	0x3dd0eff4	0.102020174
119	0x3d0d97a5	0.034568448
120	0x3e6b0a48	0.2295314
121	0xbe4fd24e	-0.20295069
122	0xbdfe3bd5	-0.12413756
123	0xbcac38ea	-0.021023232
124	0x3e0f58ed	0.13998766
125	0x3e93a18b	0.28834185
126	0x3dda8f87	0.10671907
127	0xbd2facea	-0.042889513
128	0xbe5999ea	-0.2125012
129	0xbe3d0095	-0.18457253
130	0xbd7d6151	-0.061860386
131	0x3d8f0a7c	0.069844216
132	0xbe0c4238	-0.13697135
133	0xbda4999f	-0.080371134
134	0xbe417029	-0.18890442
135	0xbc490b2a	-0.012270728
136	0x3c24c5e5	0.010056947
137	0xbe661a20	-0.22470903
138	0xbca59dbf	-0.02021682
139	0xbda0e3d8	-0.07855958
140	0x3c9b508c	0.018959306
141	0x3e147832	0.14498976
142	0xbe474fad	-0.19463988
143	0xbe169a48	-0.14707291
144	0x3cda0850	0.026615292
145	0xbdc296d6	-0.09501426
146	0x3e2c45a0	0.16823435
147	0x3e3e5372	0.1858652
148	0xbe406005	-0.18786629
149	0x3e093669	0.13399662
150	0x3d7a10c2	0.061051138
151	0x3d45161f	0.0481168
152	0xbda372bf	-0.079808705
153	0x3d81f00e	0.06344615
154	0x3d1683ac	0.036746666
155	0xbe6a0ace	-0.22855684
156	0xbce41e8b	-0.027846595
157	0x3dde5825	0.10856656
158	0x3e13eebc	0.14446539
159	0xbda2b471	-0.07944573
160	0xbe16da57	-0.14731728
161	0x3da33498	0.07969016
162	0x3d48be93	0.04900987
163	0xbe3d0646	-0.18459424
164	0xbde90135	-0.11377183
165	0x3d85983a	0.065231755
166	0xbe621aae	-0.2208049
167	0xbcd8c143	-0.026459342
168	0xbcb591d2	-0.02216426
169	0xbe0300ea	-0.12793317
170	0xbe1ffb8e	-0.15623304
171	0x3b717b22	0.0036847075
172	0x3e1fc361	0.15601875
173	0xbe243106	-0.16034326
174	0xbd732116	-0.059357725
175	0x3dd6df96	0.104918644
176	0x3d328e48	0.04359272
177	0xbdf7b316	-0.12094705
178	0x3d978dca	0.07400091
179	0x3e1e1de5	0.15441091
180	0x3e3b7cbe	0.18309304
181	0x3db4648e	0.08808242
182	0xbe7790e5	-0.24176367
183	0xbd18dcf5	-0.037320096
184	0xbcae0116	-0.021240752
185	0xbe27839f	-0.16358803
186	0xbe3add14	-0.18248397
187	0x3d39280e	0.045204215
188	0x3ddaf157	0.10690563
189	0x3daf6e3f	0.0856595
190	0xbd6f24d4	-0.05838473
191	0xbe2ab102	-0.16669086
192	0x3d0e4b23	0.034739625
193	0x3e83de5c	0.25755584
194	0x3ddb743b	0.107155286
195	0x3e3c83fc	0.18409723
196	0x3d8c9b89	0.068656035
197	0x3e73d047	0.2380992
198	0x3d837370	0.06418502
199	0x3e58920e	0.21149465
200	0xbbdafb82	-0.006682814
201	0x3e6de290	0.23230958
202	0xbd04550f	-0.03230768
203	0x3b0d3ead	0.002155225
204	0x3e64c883	0.22342114
205	0xbdb8bd7c	-0.09020516
206	0x3e902a58	0.28157306
207	0x3e22f929	0.1591536
208	0xbcffb28f	-0.031213073
209	0x3d49a566	0.049230002
210	0xba9cb9ea	-0.0011957262
211	0x3cb6abc0	0.022298694
212	0x3e372878	0.17886531
213	0xbda31e00	-0.079647064
214	0x3eaaaff6	0.33337373
215	0x3e76fedc	0.24120659
216	0x3d90ff32	0.07079925
217	0x3d3e26c0	0.046423674
218	0x3ea275c3	0.3173047
219	0x3e108d26	0.14116344
220	0xbde18dc8	-0.11013371
221	0x3e2af228	0.16693938
222	0x3d69817e	0.05700826
223	0x3e7d7ae5	0.24753912
224	0x3d752479	0.059849236
225	0xbd20ec17	-0.039287653
226	0x3d7cb6cc	0.061697766
227	0xbd36f5c6	-0.04466798
228	0x3e311664	0.17293698
229	0x3e6d6367	0.2318245
230	0x3deb186b	0.11479267
231	0x3eb0cfd5	0.34533563
232	0xbdc1160e	-0.09428035
233	0x3e82c32f	0.25539538
234	0x3d0af6ef	0.0339269
235	0x3d9e6bb0	0.077353835
236	0x3dc63e18	0.09679812
237	0x3d4d112d	0.05006521
238	0x3dfd418a	0.12366016
239	0x3e45873e	0.19289872
240	0x3e8e5155	0.27796426
241	0x3e175e3f	0.14782046
242	0x3e2a0b03	0.16605763
243	0x3e38fa89	0.18064322
244	0x3e5acb39	0.21366586
245	0x3d47ad1b	0.04874907
246	0x3d535279	0.051592324
247	0x3e0c4946	0.13699827
248	0xbd87d110	-0.066316724
249	0xbe749402	-0.23884585
250	0x3daa2d17	0.083093815
251	0x3df0afc3	0.11752274
252	0x3dbeae62	0.09310605
253	0xbbb10eba	-0.005403367
254	0x3e36bd69	0.17845692
255	0x3d120b3f	0.035655256

sequential_2/dense_8/MatMul f4 [1, 64]
0	0x3ec972e7	0.39345476
1	0xbebf4db8	-0.37363982
2	0xbe37f0b2	-0.17962912
3	0x3df97da2	0.12182166
4	0x3ee2dce9	0.44309166
5	0x3ec43f71	0.38329652
6	0xbe8a593c	-0.27021205
7	0x3e86322c	0.26210153
8	0xbefbf7cb	-0.4921249
9	0xbdbe5541	-0.09293605
10	0x3e55c741	0.2087679
11	0x3ea8ca10	0.3296666
12	0x3ebff6a6	0.37492865
13	0xbee526c5	-0.4475614
14	0x3e47043d	0.1943521
15	0x3ef0197b	0.4689444
16	0x3e2814a9	0.16414131
17	0xbd4f1c4e	-0.050564103
18	0xbe8ab758	-0.27093005
19	0xbebdbcbe	-0.3705806
20	0xbdd65c77	-0.10466855
21	0x3ef2200d	0.47290078
22	0x3e2680d6	0.16260085
23	0x3e17013a	0.14746562
24	0x3e6906a1	0.22756435
25	0xbe15be5d	-0.14623399
26	0x3ed6d09a	0.41956025
27	0x3e8ea4eb	0.27860197
28	0xbe760e66	-0.2402893
29	0xbe8f1faf	-0.2795386
30	0xbe279a96	-0.16367564
31	0x3e58a272	0.21155718
32	0xbdca0142	-0.09863521
33	0x3ea42430	0.3205886
34	0xbe87cb4b	-0.26522288
35	0xbc330da9	-0.01092855
36	0x3eba5dc4	0.36399662
37	0x3e3a3c76	0.18187127
38	0xbe243d8a	-0.160391
39	0x3e82642a	0.25467044
40	0x3ecdbe09	0.40184048
41	0x3e42a7e8	0.19009364
42	0x3e76c028	0.2409674
43	0xbe87ab20	-0.26497746
44	0x3e14d00e	0.14532492
45	0x3ea7a246	0.32740992
46	0x3e2e7389	0.1703626
47	0xbe9f8681	-0.31157306
48	0x3ec0562d	0.37565747
49	0xbe399363	-0.1812263
50	0xbee7ed73	-0.45298347
51	0x3e319b64	0.17344433
52	0xbdcecdc2	-0.10097839
53	0xbe834069	-0.2563508
54	0x3eb1f5f7	0.3475797
55	0x3ec5e7c3	0.38653383
56	0xbeea2f7c	-0.45739353
57	0x3e59d75c	0.2127356
58	0xbe87bd5d	-0.2651166
59	0xbef1c304	-0.47219098
60	0xbd8f5d4b	-0.07000216
61	0xbe27b6e4	-0.16378361
62	0xbe557f47	-0.20849334
63	0xbea37803	-0.319275
