app/src/main/ml/dnn4_model.tflite (tflite, 21960 bytes, 7 tensors)

sequential/normalization/truediv;sequential/normalization/Sqrt f4 [1, 9]
0	0x3d8f3d72	0.06994142
1	0x4003f6a7	2.0619295
2	0x40060fc5	2.0947125
3	0x40000bf9	2.0007308
4	0x40236854	2.5532427
5	0x402da154	2.7129717
6	0x403b34f3	2.9251068
7	0x40c55555	6.1666665
8	0x40c55555	6.1666665

sequential/dense/BiasAdd/ReadVariableOp f4 [64]
0	0x3da4a8a3	0.080399774
1	0x3d6902f0	0.056887567
2	0x3dd915d1	0.10599864
3	0x3d5a9040	0.053360224
4	0x3d82a596	0.06379239
5	0x3d8077e2	0.06272866
6	0xbb909326	-0.0044120727
7	0x3dd34efc	0.103177994
8	0xbc63efb4	-0.01391213
9	0x3d82ff48	0.06396347
10	0xbb4bac84	-0.003107817
11	0x3db31679	0.08744521
12	0x3df38d04	0.11892131
13	0x3ddf5b2b	0.10906061
14	0x3dd3c3f4	0.103401095
15	0x3db96d74	0.0905408
16	0x3d907c69	0.07054979
17	0x3ddafc29	0.10692627
18	0x3cfec579	0.031100022
19	0x3d9eb761	0.077498205
20	0x3d952ce7	0.07283955
21	0x3dda2a09	0.10652549
22	0x3dae6531	0.085153945
23	0x3dc37d4a	0.09545381
24	0x3ddc799a	0.10765381
25	0x3dc95c79	0.09832091
26	0x3db3f57c	0.08787057
27	0x3ba8335e	0.0051330766
28	0x3de9e202	0.11420061
29	0xbb53cc95	-0.0032317985
30	0x3df09fff	0.11749267
31	0x3da273a0	0.0793221
32	0xbca4f648	-0.020136967
33	0x3c94d384	0.018167265
34	0x3dcb0c7d	0.09914491
35	0x3d85514f	0.06509649
36	0x3dcd8a97	0.100361995
37	0x3dcf9497	0.10135763
38	0x3d923ed2	0.07140888
39	0x3dcb8e2c	0.099392265
40	0x3d675291	0.056475226
41	0x3de91a29	0.11381943
42	0x3d7c633b	0.06161807
43	0x3d3db103	0.04631139
44	0x3df027f9	0.11726374
45	0x3db1de2c	0.08684954
46	0x3df22c9f	0.11824917
47	0x3ddd5bc4	0.108085185
48	0x3dcd62cc	0.1002861
49	0x3c97d238	0.018532857
50	0x3de6a366	0.112616345
51	0x3dbc96e8	0.092084706
52	0x3dc06497	0.09394186
53	0x3d971e52	0.0737883
54	0x3de0be26	0.10973768
55	0x3da92465	0.08258895
56	0x3d917091	0.071015485
57	0x3dbf4c2f	0.09340703
58	0x3d500e45	0.05079486
59	0x3d625f0f	0.055266436
60	0x3de52c36	0.11190073
61	0x3a03dd0e	0.0005030193
62	0x3db6ed96	0.08932035
63	0x3d2f8bf6	0.042858087

sequential/dense_1/BiasAdd/ReadVariableOp f4 [64]
0	0xbd00fcf1	-0.031491224
1	0xbca21fd8	-0.019790575
2	0xbcf05a59	-0.029339956
3	0xbc48e883	-0.012262466
4	0x3baf7a10	0.005355127
5	0x3da7049c	0.08155176
6	0x3d9e9eee	0.07745157
7	0x3da37f76	0.079832956
8	0x3dae6122	0.0851462
9	0x3db16e4c	0.086636156
10	0x3daea6c5	0.085279025
11	0xbd189b88	-0.0372577
12	0x3dd5bf63	0.10436895
13	0xbd007156	-0.031358086
14	0x3da88f06	0.082304046
15	0x3da9ef29	0.08297569
16	0x3d9cc2c8	0.07654339
17	0xbc95ca8b	-0.018285057
18	0x3dadb8fe	0.0848255
19	0xbc829b96	-0.01594333
20	0x3dbf81e4	0.093509465
21	0x3da50b3f	0.08058786
22	0xbd3685a3	-0.04456104
23	0x3db4daca	0.08830793
24	0x00000000	0.0
25	0xbd164a33	-0.036691856
26	0x3da5ab93	0.08089366
27	0xbc8895c4	-0.016672976
28	0xbc88804f	-0.016662745
29	0x3da57b9c	0.08080217
30	0x3dc070c5	0.09396509
31	0xbcd4271c	-0.025897555
32	0xbd3888d8	-0.04505238
33	0xbcccff3e	-0.025024053
34	0x3da291d0	0.07937968
35	0x3d1a03a6	0.037601136
36	0x3dd21049	0.102570124
37	0x00000000	0.0
38	0x3db18ab6	0.08669035
39	0x3da250ac	0.07925543
40	0x3dc3f232	0.095676795
41	0xbcf01056	-0.029304665
42	0x3da40dd5	0.08010451
43	0x3db339c4	0.08751252
44	0x3daf1593	0.08549037
45	0x3da9412e	0.08264385
46	0x3d98d66c	0.07462773
47	0x3da18231	0.0788616
48	0x3da1f7a3	0.07908561
49	0xbd1ffb91	-0.03905827
50	0xbd10023e	-0.03515839
51	0x3d9d934c	0.0769411
52	0x3cd9c0e7	0.02658124
53	0xbcef5da7	-0.029219462
54	0xbcdba722	-0.026813094
55	0x3db3eb1b	0.08785077
56	0xbd37dde7	-0.044889357
57	0xbd2d9a6c	-0.042383596
58	0x3d92def4	0.07171431
59	0xbcf8eb0a	-0.030385513
60	0x3dbbcb47	0.091696315
61	0x3d9b4d05	0.0758305
62	0x3da87a36	0.08226435
63	0x3d9876c7	0.0744453

Const f4 [1, 9]
0	0x422b3e46	42.810814
1	0x3f1f2299	0.62162167
2	0x3f260dd7	0.6486487
3	0x3ef914c2	0.4864865
4	0x3e41bad0	0.1891892
5	0x3e260dd7	0.16216217
6	0x3e0a60de	0.13513514
7	0x3cdd67c9	0.027027028
8	0x3cdd67c9	0.027027028

sequential/dense/MatMul f4 [64, 9]
0	0xbe4af991	-0.19821765
1	0xbeb67935	-0.3563935
2	0x3cec55cd	0.028849507
3	0xbd7814d5	-0.060566742
4	0xbe7660e3	-0.24060397
5	0xbced5b4d	-0.0289742
6	0xbdecddb1	-0.11565722
7	0xbeb2a87c	-0.34894168
8	0x3d9417a5	0.07231072
9	0xbdebab57	-0.1150729
10	0xbe32ff52	-0.1748021
11	0xbe7f9f09	-0.24963011
12	0xbe3de5e9	-0.18544735
13	0x3e6752d1	0.22590186
14	0xbd92f19b	-0.07174989
15	0xbe963c59	-0.29342917
16	0x3d39957d	0.04530858
17	0xbca144b6	-0.019686084
18	0x3ec6a54f	0.38797995
19	0x3ec3ff86	0.38280886
20	0x3e314c71	0.17314316
21	0x3d849629	0.06473953
22	0x3e6d6555	0.23183186
23	0x3e140816	0.1445621
24	0xbe0ae51d	-0.13563962
25	0xbea4c931	-0.32184747
26	0xbe4c0488	-0.19923604
27	0x3e983fb6	0.29736108
28	0xbea5633f	-0.3230228
29	0xbe96402c	-0.29345834
30	0xbe755347	-0.23957549
31	0x3e3add0b	0.18248384
32	0xbe762f5f	-0.24041508
33	0x3e4511f6	0.19245133
34	0xbded6b3d	-0.1159272
35	0xbe9286f9	-0.286186
36	0xbc6d880d	-0.014497769
37	0xbe60ea92	-0.21964481
38	0xbe9a5e21	-0.3014994
39	0xbe5a0f4e	-0.21294901
40	0x3ddbd609	0.10734183
41	0xbd147442	-0.036243685
42	0x3e6572df	0.22407101
43	0xbdd39fcd	-0.10333214
44	0x3c30728d	0.010769499
45	0xbe16cb78	-0.14726055
46	0xbe298081	-0.16552927
47	0x3d4571ab	0.048204105
48	0xbe8e3b13	-0.27779445
49	0x3e33e862	0.17569116
50	0xbdac5215	-0.084140934
51	0x3da5c538	0.08094257
52	0x3c9a0f5b	0.01880615
53	0xbe99a5a0	-0.30009174
54	0x3e130515	0.14357407
55	0xbe7708da	-0.2412447
56	0xbe7dd22f	-0.2478721
57	0x3d19662f	0.037450965
58	0xbe2d658d	-0.1693327
59	0x3d7cc1ff	0.061708447
60	0x3d9df4de	0.0771272
61	0x3d85436b	0.065069996
62	0x3e0fddf5	0.14049514
63	0xbe66174c	-0.22469825
64	0x3e810716	0.2520072
65	0xbe94f103	-0.29090127
66	0xbe36a557	-0.1783651
67	0xbea51f7d	-0.32250586
68	0xbd0ad466	-0.033893965
69	0xbe9d0545	-0.30668083
70	0xbe51f94d	-0.20505257
71	0xbea73a6c	-0.3266176
72	0xbe92630a	-0.28591186
73	0x3ea08dc2	0.31358153
74	0xbdce1789	-0.10063083
75	0x3c82087c	0.015873186
76	0x3d92afec	0.07162461
77	0x3e91381e	0.28363127
78	0xbe8aa03e	-0.2707538
79	0x3e927118	0.2860191
80	0x3dfaa40a	0.12238319
81	0x3e9f0456	0.31057996
82	0x3d539128	0.051652104
83	0xbeb4dba1	-0.35323814
84	0xbea3be10	-0.31980944
85	0x3e5e9b59	0.21738948
86	0xbe375c3f	-0.17906283
87	0x3e187177	0.14887033
88	0x3e41ac86	0.18913469
89	0xbd69f1e7	-0.05711546
90	0x3d00109c	0.03126584
91	0x3c96f694	0.018428124
92	0x3daee1f5	0.08539192
93	0x3e09039d	0.13380285
94	0xbc74ffad	-0.014953536
95	0xbd5e2312	-0.054232664
96	0x3e307633	0.1723259
97	0xbda8fa38	-0.082508504
98	0xbe05c030	-0.13061595
99	0xbe77d6df	-0.2420306
100	0xbd660f43	-0.0561669
101	0x3e0c7faf	0.13720582
102	0x3ea8443c	0.3286456
103	0xbbcd976b	-0.006274154
104	0xbe250aff	-0.16117476
105	0x3e80a955	0.2512919
106	0x3e4eb712	0.20187023
107	0x3d2a72b8	0.04161331
108	0xbdea2a96	-0.11433904
109	0x3d6d4f75	0.057937104
110	0x3eb9a868	0.36261296
111	0xbd98aca7	-0.07454806
112	0xbd71651d	-0.05893432
113	0x3d5ed566	0.05440273
114	0xbeb082a5	-0.34474674
115	0x3e427076	0.18988213
116	0xbe6ef5b3	-0.23335914
117	0xbddc099d	-0.10744021
118	0x3bcc5180	0.0062353015
119	0x3eb8be79	0.3608282
120	0x3c81fe14	0.015868224
121	0x3e0562ec	0.13026017
122	0xbeb04a4c	-0.34431684
123	0x3c303b05	0.010756259
124	0xbe8febfe	-0.28109735
125	0xbbb2180e	-0.0054349964
126	0x3dadb4d1	0.084817536
127	0xbe9c06c5	-0.30473915
128	0xbe4964d3	-0.19667368
129	0x3e902623	0.28154096
130	0xbe4a5343	-0.19758324
131	0x3e0fe689	0.14052786
132	0xbc78bafc	-0.015181299
133	0xbdc43fc9	-0.095824786
134	0xbeb025f2	-0.3440395
135	0xbe06ac71	-0.13151719
136	0x3d91c709	0.07118041
137	0xbe510cf9	-0.20415105
138	0x3e875e57	0.26439163
139	0xbd12c7a5	-0.035834927
140	0xbd0459b7	-0.03231212
141	0xbeb1d79a	-0.34734803
142	0x3d9f050e	0.07764636
143	0xbcf744d9	-0.030184196
144	0x3dd80aee	0.1054896
145	0x3e59dcd6	0.21275648
146	0xbe6b393d	-0.22971053
147	0xbe93c969	-0.288646
148	0x36ee3d00	7.100054e-06
149	0x3dd3d1bd	0.10342739
150	0xbe193ee2	-0.14965394
151	0xbe471567	-0.19441758
152	0xbe9e3654	-0.30900824
153	0xbdcf41ae	-0.10119949
154	0xbe6c4058	-0.2307142
155	0x3ea185df	0.31547448
156	0x3ebde84e	0.37091297
157	0xbba03e80	-0.004890263
158	0xbe83a844	-0.25714314
159	0x3ce4ab08	0.027913585
160	0x3d6a9527	0.05727115
161	0x3e2c1658	0.16805398
162	0x3e5ee9c1	0.21768858
163	0xbd78eddb	-0.06077371
164	0x3e1d5adf	0.15366696
165	0xbcb0b409	-0.021570222
166	0x3bfbe9fa	0.0076878043
167	0xbd3bea61	-0.045877818
168	0xbe7a861b	-0.2446522
169	0xbe4d1769	-0.20028462
170	0xbe981ddf	-0.2971029
171	0x3e1185d1	0.14211203
172	0x3e2359c0	0.15952206
173	0xbdb50e25	-0.088405885
174	0x3d77d30a	0.060503997
175	0xbd14d293	-0.03633363
176	0x3d06e609	0.032934222
177	0xbeacc730	-0.33745718
178	0xbc14f306	-0.009091144
179	0xbea4deb3	-0.32201156
180	0xbc3beb85	-0.011469726
181	0xbda37fc7	-0.07983356
182	0x3e881389	0.26577404
183	0xbe257316	-0.16157183
184	0x3bf9b226	0.007620114
185	0x3c11fb83	0.008910063
186	0x3e6d5322	0.23176244
187	0xbcb98fcb	-0.022651574
188	0xbe9e02cf	-0.30861518
189	0xbdb3bdcb	-0.087764345
190	0x3de97956	0.11400096
191	0x3b30c0dc	0.0026970422
192	0x3e1b82d9	0.15186633
193	0xbec8dca2	-0.3923083
194	0xbea4faaa	-0.32222492
195	0xbec62356	-0.38698834
196	0xbe836e6e	-0.2567019
197	0xbe6ded06	-0.23234949
198	0x3e9dedca	0.3084548
199	0x3da8388c	0.082139105
200	0xbe5eacf8	-0.2174567
201	0xbe065eba	-0.13122073
202	0xbcc53d2a	-0.024077017
203	0xbe1745f6	-0.14772782
204	0xbdfd935d	-0.12381623
205	0x3d381636	0.044943057
206	0x3ddfe0f0	0.10931575
207	0x3dd33bd9	0.103141494
208	0x3e80d490	0.25162172
209	0x3e0557b9	0.13021745
210	0x3e1c9915	0.15292771
211	0xbe59da8a	-0.21274772
212	0xbe96bb81	-0.2943993
213	0x3ea8eab6	0.3299157
214	0xbdc0b5dd	-0.09409688
215	0x3d4272fe	0.047472946
216	0xbd12a70b	-0.035803836
217	0xbe685d24	-0.2269178
218	0xbe73dd40	-0.23814869
219	0x3ecc33bf	0.3988323
220	0x3c796752	0.015222387
221	0xbdde5bbc	-0.10857341
222	0x3dc97ecb	0.09838637
223	0xbe65afa6	-0.22430286
224	0xbe9f50b6	-0.31116265
225	0x3eaa0fdd	0.33215228
226	0xbe359b1d	-0.17734952
227	0x3c41e555	0.011834462
228	0xbde3a04b	-0.11114558
229	0x3e53c4e6	0.2068058
230	0xbd6b92d5	-0.057513077
231	0x3e1cf85d	0.15329118
232	0x3e82c280	0.25539017
233	0xbd55c709	-0.052191768
234	0x3e8dd724	0.27703202
235	0x3e87be1d	0.26512232
236	0x3c796452	0.015221672
237	0xbe0c9f38	-0.13732612
238	0xbdd35b1e	-0.103201136
239	0xbc8686c9	-0.016421692
240	0xbeabcdf0	-0.33555555
241	0xbe2d5524	-0.1692701
242	0xbd764f17	-0.06013402
243	0xbe5e5f88	-0.2171613
244	0xbe283d63	-0.16429667
245	0x3d8581b4	0.065188795
246	0x3c834eae	0.016028728
247	0x3e6ec5af	0.23317598
248	0x3eb44e89	0.35216168
249	0x3d77e38c	0.06051974
250	0x3dc881ed	0.097904064
251	0x3e3215d1	0.17391135
252	0x3e9ec8b7	0.31012508
253	0xbea858e0	-0.32880306
254	0xbdfca263	-0.1233566
255	0xbdf67fa4	-0.12036064

sequential/dense_1/MatMul f4 [64, 64]
0	0xbdfe3e68	-0.12414247
1	0xbd252d8d	-0.040326644
2	0xbd049759	-0.0323709
3	0x3ddd747e	0.10813235
4	0x3dd75d37	0.10515826
5	0x3e0051b8	0.12531173
6	0xbe689418	-0.22712743
7	0x3de601f1	0.11230839
8	0x3e0fb52c	0.14033955
9	0x3d8628b3	0.065507315
10	0xbdc39df5	-0.09551612
11	0x3daec0eb	0.0853289
12	0xbd0a683d	-0.033790816
13	0xbe2f489f	-0.17117546
14	0xbe28f287	-0.16498767
15	0x3e1da036	0.15393147
16	0x3cd4920b	0.025948545
17	0x3e115154	0.1419118
18	0x3e36d797	0.17855678
19	0xbe34802e	-0.17627022
20	0xbd2c7ab9	-0.042109225
21	0x3e095b72	0.1341379
22	0x3dce986e	0.100876674
23	0xbe4250ab	-0.18976085
24	0x3d85dae6	0.06535892
25	0xbd54a98a	-0.051919498
26	0x3df44e25	0.119289674
27	0xbe51c84a	-0.2048656
28	0xbdc55aa2	-0.096364275
29	0xbbfba685	-0.007679763
30	0xbdc68b94	-0.09694591
31	0xbe135ee2	-0.14391664
32	0xbdb4d07e	-0.08828829
33	0xbe3cd1c5	-0.18439396
34	0x3e128074	0.14306813
35	0xbe24179b	-0.1602463
36	0x3df79796	0.120894596
37	0x3dd09fb8	0.10186714
38	0x3dac4fe4	0.084136754
39	0x3d6243b2	0.05524034
40	0xbe2d13e6	-0.16902122
41	0x3df4e5f6	0.11957924
42	0xbe2cad58	-0.16863
43	0x3d23cf15	0.03999241
44	0x3dc0efa1	0.094207056
45	0xbdb02275	-0.08600322
46	0xbd860b68	-0.06545144
47	0x3dfae1fe	0.12250136
48	0x3e31e77a	0.17373458
49	0xbe2ef07b	-0.17083924
50	0x3deae7d9	0.11470003
51	0x3e2f7de6	0.1713787
52	0xbe767177	-0.24066721
53	0xbe115675	-0.14193137
54	0xbe08050e	-0.13283178
55	0x3cb305c6	0.021853339
56	0x3d6af995	0.057366926
57	0x3e5086a4	0.20363861
58	0xbe5983b1	-0.21241643
59	0x3e1a5bc7	0.15074073
60	0xbe49bb9e	-0.19700477
61	0x3d9fb06f	0.07797324
62	0xbe5de4a7	-0.21669255
63	0xbda0514a	-0.07828005
64	0xbe0b5b5f	-0.13609074
65	0xbe1615a0	-0.14656687
66	0x3e02a8c2	0.12759688
67	0x3d7dabdd	0.06193148
68	0x3d51c76e	0.05121558
69	0x3e15b857	0.14621101
70	0xbda69383	-0.081336044
71	0x3e0ac13b	0.13550274
72	0x3d874a82	0.06606008
73	0xbe35e780	-0.17764091
74	0x3d5b7ad2	0.053583927
75	0xbe793480	-0.24336433
76	0x3dedd05d	0.11612008
77	0x3dc04036	0.09387247
78	0xbdd6166f	-0.104534976
79	0x3de47e2c	0.11156878
80	0x3c5d6df5	0.013514985
81	0x3cd5220f	0.026017217
82	0xbd185921	-0.037194375
83	0x3d8d3581	0.06894971
84	0x3ddf50a9	0.109040566
85	0xbd16ffe3	-0.036865126
86	0xbde13a3e	-0.10997437
87	0x3e071144	0.1319018
88	0xbe7fb972	-0.24973086
89	0xbd773ed2	-0.060362644
90	0xbe50e58c	-0.20400065
91	0x3d25a34f	0.040438946
92	0x3e22333e	0.1583986
93	0x3e700d3b	0.23442547
94	0xbe1fbaf0	-0.15598655
95	0x3d9f32ba	0.07773347
96	0xbd36271e	-0.0444709
97	0x3e30580a	0.17221084
98	0x3cb053d2	0.021524344
99	0xbe8e3f15	-0.27782503
100	0x3dc40906	0.095720336
101	0xbda6199e	-0.08110355
102	0x3dabb6af	0.083844535
103	0xbdded5c9	-0.1088062
104	0x3e8026c7	0.25029585
105	0xbd5b9cc5	-0.053616304
106	0x3e102c0b	0.14079301
107	0x3e1f41ef	0.15552495
108	0xbe40a683	-0.18813519
109	0xbe0224c2	-0.12709334
110	0x3ceedf9b	0.029159358
111	0xbe82e694	-0.25566542
112	0xbe365d30	-0.17808986
113	0x3dc080da	0.093995765
114	0x3db54cbe	0.08852528
115	0xbd9f08d9	-0.077653594
116	0x3e23d6dd	0.15999933
117	0xbdca31c8	-0.09872776
118	0xbe7fbf3e	-0.24975297
119	0x3e2c967e	0.16854283
120	0x3c974c67	0.018469049
121	0x3e642029	0.22277893
122	0xbe0496e0	-0.12948179
123	0xbe0e62c9	-0.13904871
124	0x3c747457	0.014920316
125	0x3e36f72b	0.17867725
126	0xbdea564e	-0.114422426
127	0x3e331418	0.17488134
128	0xbe6b2b13	-0.2296565
129	0x3e0ce5a5	0.13759477
130	0x3e252772	0.16128328
131	0xbcc70c87	-0.024297966
132	0x3d8102a3	0.06299331
133	0x3d579d00	0.05263996
134	0x3dfdb1d9	0.123874374
135	0xbc7bc681	-0.015367151
136	0xbd72f773	-0.059318017
137	0xbe664acf	-0.22489475
138	0xbe2364b1	-0.1595638
139	0xbe3c8227	-0.18409024
140	0x3cf9e08b	0.030502578
141	0xbd69b089	-0.057053123
142	0x3dbec82d	0.09315524
143	0x3dc51d12	0.09624685
144	0x3e69549e	0.22786185
145	0xbe49a86b	-0.19693153
146	0xbe22ba26	-0.15891322
147	0xbe2429f1	-0.16031624
148	0x3d96a748	0.07356125
149	0xbda327d4	-0.07966581
150	0x3de8a680	0.11359882
151	0x3d8ffe07	0.07030874
152	0xbe401591	-0.18758227
153	0xbe098ff2	-0.13433817
154	0xbdb55b07	-0.08855253
155	0xbda95e21	-0.08269907
156	0x3dfc563a	0.12321134
157	0x3e623350	0.22089887
158	0xbe7c3168	-0.24628222
159	0xbc9f46e9	-0.019442992
160	0xbe1907ca	-0.14944378
161	0xbe662e4a	-0.22478595
162	0xbe832715	-0.25615755
163	0xbe15fc94	-0.14647132
164	0x3ce18ab5	0.027531961
165	0x3d5a5769	0.053306017
166	0x3e95c69a	0.29253083
167	0xbd53e0b0	-0.05172795
168	0xbddadff3	-0.10687246
169	0x3de3e36c	0.11127362
170	0xbded90ab	-0.11599859
171	0x3e21999d	0.15781255
172	0x3d2f83ab	0.042850178
173	0x3e15f63c	0.14644712
174	0xbd6a1a63	-0.05715407
175	0xbd43c17b	-0.04779194
176	0x3e160e1f	0.14653824
177	0x3e7a629d	0.2445168
178	0x3e21edb7	0.15813337
179	0xbd974000	-0.07385254
180	0x3d9a4b09	0.07533843
181	0xbe360b40	-0.17777729
182	0x3c76d1bd	0.015064654
183	0x3b7b7f21	0.0038375335
184	0xbe251c50	-0.16124082
185	0x3e50dffc	0.20397943
186	0x3dcad582	0.09904005
187	0x3e173bdf	0.14768933
188	0x3e69869f	0.2280526
189	0x3e012cbf	0.12614726
190	0xbd828b6c	-0.06374249
191	0x3e641772	0.22274569
192	0x3e0885cd	0.13332291
193	0x3ddcab44	0.10774854
194	0x3e226918	0.15860403
195	0xbe27a6f6	-0.16372284
196	0x3bc284c3	0.0059362366
197	0x3da97d7a	0.08275886
198	0xbe227803	-0.15866093
199	0x3e59bc5a	0.21263257
200	0x3d59568a	0.053061046
201	0x3d9e7953	0.077379845
202	0x3d18bc0f	0.03728872
203	0x3db4685f	0.0880897
204	0x3da221ff	0.079166405
205	0xbe748999	-0.23880614
206	0x3dd07ade	0.10179685
207	0x3e01d876	0.1268023
208	0xbcdacc4f	-0.02670875
209	0xbe750bf1	-0.23930337
210	0x3e008e4a	0.12554279
211	0x3c6d6eb6	0.014491728
212	0xbd9bef73	-0.07614031
213	0x3dfb2929	0.1226371
214	0x3d8d886f	0.06910788
215	0xbe5b1473	-0.2139452
216	0x3c5ec52c	0.013596814
217	0x3ddcdee9	0.10784704
218	0x3e1ab204	0.1510697
219	0xbdb13e8a	-0.086545065
220	0xbe18f3a6	-0.14936695
221	0xbccc865b	-0.02496641
222	0xbe80bbed	-0.25143376
223	0x3ba009bc	0.004883973
224	0x3d1cb4df	0.03825843
225	0x3d1a7634	0.037710384
226	0xbe23178a	-0.15926948
227	0xbe6d10a7	-0.23150884
228	0x3e1a7dde	0.15087077
229	0x3ccaee7e	0.024771925
230	0xbd5b7683	-0.05357982
231	0x3da0dd3b	0.07854696
232	0x3e5ffd6a	0.21874014
233	0x3e0d3085	0.1378804
234	0xbdb2587b	-0.087082826
235	0xbdd65ab1	-0.10466517
236	0xbe84f433	-0.2596756
237	0xbd84915b	-0.06473037
238	0x3dec9662	0.11552121
239	0xbe25188c	-0.16122645
240	0x3e07f031	0.1327522
241	0x3b1ac592	0.0023616296
242	0x3e3529d3	0.17691736
243	0x3e160639	0.14650811
244	0xbdc661de	-0.096866354
245	0xbe4d0581	-0.20021631
246	0x3d88e97d	0.06685159
247	0x3e67906a	0.22613683
248	0x3d9d92ae	0.076939926
249	0x3e32029b	0.17383806
250	0x3defb998	0.11705321
251	0xbe21a450	-0.15785336
252	0xbd854e26	-0.06509046
253	0x3e4d864b	0.2007076
254	0xbdc6bfd0	-0.09704554
255	0x3e8e79cc	0.278273

sequential/dense_2/MatMul f4 [1, 64]
0	0xbbfb6aeb	-0.0076726577
1	0xbe793861	-0.24337913
2	0xbe91ca43	-0.28474626
3	0xbe8d7576	-0.27628678
4	0xbeaa07a9	-0.3320897
5	0x3e398cab	0.18120067
6	0x3eb107cc	0.3457626
7	0x3e2d67d5	0.1693414
8	0x3ec71f58	0.388911
9	0x3e528606	0.20558938
10	0x3ea33d55	0.3188273
11	0xbe5577e4	-0.20846516
12	0x3ec525ff	0.3850555
13	0xbe144181	-0.14478113
14	0x3ea26d39	0.31723955
15	0x3eb84fe1	0.35998443
16	0x3e365e9b	0.17809527
17	0xbeaae1c0	-0.3337536
18	0x3e715de5	0.23570974
19	0xbce34fe9	-0.027748065
20	0x3dbe3505	0.092874564
21	0x3e9ee3fe	0.3103332
22	0xbe2e5218	-0.17023504
23	0x3e6c3dc7	0.23070441
24	0x3d16c5c0	0.036809683
25	0xbd9ff189	-0.07809741
26	0x3e8c1d31	0.2736602
27	0xbeb6e01c	-0.35717857
28	0xbe6a2ab5	-0.22867854
29	0x3e259594	0.16170341
30	0x3dd4cd5d	0.103907324
31	0x3b58ad32	0.0033062217
32	0xbe249daf	-0.16075777
33	0xbdd1810d	-0.102296926
34	0x3e59cdd9	0.21269931
35	0xbe8d2f4c	-0.27575147
36	0x3dd8e9fa	0.105915025
37	0x3e03cf5c	0.1287207
38	0x3e7d8083	0.24756055
39	0x3e84c8ba	0.25934392
40	0x3e44f6e8	0.19234812
41	0xbe6253a9	-0.22102226
42	0x3de6dd0d	0.11272631
43	0x3eaf331a	0.34218675
44	0x3e14205e	0.14465472
45	0x3e80d6a4	0.25163758
46	0x3e87be79	0.26512507
47	0x3e65baa6	0.22434482
48	0x3e46b0dd	0.19403405
49	0xbe81113e	-0.25208467
50	0xbe79399f	-0.24338387
51	0x3ead2b29	0.3382199
52	0xbecfd5dd	-0.40592852
53	0xbe8073d8	-0.25088382
54	0xbd9e2801	-0.07722474
55	0x3ea6d628	0.32585263
56	0xbe377d32	-0.17918852
57	0xbdb09778	-0.0862264
58	0x3ec0151e	0.3751611
59	0xbdec9295	-0.11551396
60	0x3dcb8719	0.09937877
61	0x3ea0a8d5	0.3137881
62	0x3e7a5d87	0.2444974
63	0x3e6c170b	0.23055665
